model_ckpts/MAMBA_0.01_8_64_1000_ckpt_3321_20250423.pth (torch, 62894 bytes, 39 tensors)

embedding.weight f4 [2, 8]
000000 ca c3 c6 3f 51 98 85 3f e7 31 fa 3e 12 87 1a 3f
       1.55285 1.0437108 0.48866197 0.6036235
000010 aa 6b e0 3f 46 e7 db 3f 37 d5 85 3f 41 a1 47 bf
       1.7532856 1.7179954 1.0455693 -0.7798043
000020 00 00 00 00 00 00 00 00 00 00 00 00 00 00 00 00
       0.0 0.0 0.0 0.0
000030 00 00 00 00 00 00 00 00 00 00 00 00 00 00 00 00
       0.0 0.0 0.0 0.0

mamba_layers.0.A_log f4 [16, 64]
000000 76 1a f0 bd 96 f3 ef bd 9c 68 48 bf 0f 5a 48 bf
       -0.11723797 -0.11716382 -0.7828462 -0.7826242
000010 15 fb 1a 3e 4b f3 92 bd c5 af 34 3f a0 66 48 bf
       0.15134843 -0.07175311 0.70580703 -0.78281593
000020 38 02 33 3f 95 16 34 3f bd d1 34 3f 20 77 48 bf
       0.6992526 0.7034696 0.70632535 -0.7830677
000030 4d 42 48 bf 2c 33 3b 3f d3 45 db 3e a9 df 34 3f
       -0.78226167 0.7312496 0.4282671 0.7065378
000040 37 de 2a 3f e4 aa 34 3f 91 00 48 bf b4 c7 34 3f
       0.6674532 0.7057326 -0.78125864 0.7061722
000050 44 3c 48 bf 1d 90 28 3f 06 4f 0c 3e 6b 66 48 bf
       -0.7821696 0.658449 0.1370202 -0.7828128
000060 58 52 c3 bd 78 7f 1e 3f 2e 5a 48 bf c3 5a 48 bf
       -0.0953719 0.6191325 -0.78262603 -0.7826349
000070 1e 2b 34 3f 38 ad 34 3f 8a c2 34 3f 51 e1 33 3f
       0.7037829 0.7057681 0.70609343 0.7026568
000080 4b 72 33 3f d9 07 dc bd c7 b1 34 3f cc 62 48 bf
       0.7009627 -0.10743684 0.70583767 -0.7827575
000090 9f 04 0a 3e 39 ed 33 3f 50 fb 2c 3e 63 4c 0b be
       0.13478325 0.7028385 0.16892743 -0.13603358
0000a0 2e 29 10 be 16 5b 33 3f 1c 82 73 3c 9d 0e 34 3f
       -0.14078209 0.7006086 0.014862563 0.703348
0000b0 82 c1 34 3f 0d 20 97 3e 0a 6c 48 bf ca 0d 1d 3d
       0.7060777 0.2951664 -0.78289855 0.03834323
0000c0 47 93 34 3f fa 68 48 bf 1e c6 34 3f dc c0 bf 3e
       0.7053723 -0.7828518 0.706148 0.37451828
0000d0 92 0c 34 3f f8 ac 34 3f cc f2 e3 3d 8b 7d 34 3f
       0.7033168 0.7057643 0.11130294 0.70504063
0000e0 52 63 99 bd d9 f6 28 3f 01 22 6f 3e 25 55 48 bf
       -0.07489647 0.6600166 0.23352815 -0.7825492
0000f0 21 74 34 3f 7b bd 34 3f d8 3b bc bd 4a 06 09 be
       0.704897 0.70601624 -0.09191102 -0.13381305
000100 10 4f 52 3f 45 39 52 3f 6b 2e 65 3e 77 92 65 3e
       0.8215189 0.82118636 0.22380988 0.22419153
000110 af 74 27 bc fa 8f 7b 3e aa 27 8b 3e 23 04 65 3e
       -0.010220691 0.24566641 0.271787 0.2236486
000120 da a9 93 3e fb c5 8e 3e b5 d7 8a 3e 43 10 65 3e
       0.28840524 0.27885422 0.27117696 0.22369485
000130 f4 d0 64 3e 8c 4e 6d 3e 68 1c 36 3e 8c 1a 8b 3e
       0.22345334 0.23174495 0.17784274 0.2716869
000140 58 35 8b 3e 8e 1e 8b 3e 63 85 65 3e ef d7 8a 3e
       0.27189136 0.2717175 0.22414164 0.2711787
000150 8a bf 64 3e e0 ce 8b 3e 67 f7 91 3e 43 50 65 3e
       0.22338691 0.2730627 0.28509066 0.22393899
000160 6e a6 92 3e 3f 4b 63 3e ec dc 64 3e ab 74 65 3e
       0.286426 0.22196673 0.223499 0.22407787
000170 c8 31 8c 3e ab 1f 8b 3e 9c e9 8a 3e a8 20 8d 3e
       0.2738173 0.27172598 0.27131355 0.27563977
000180 a1 35 92 3e 01 8d 9d 3e 68 ac 8a 3e 7d 58 65 3e
       0.2855654 0.3077164 0.2708466 0.22397037
000190 cd 11 19 3e dc 67 8c 3e c4 99 0a 3e 7a 7a 4a 3e
       0.14948197 0.27422988 0.1353522 0.19773284
0001a0 07 c7 98 3e e3 d0 92 3e 84 21 37 3e 93 41 8c 3e
       0.29839346 0.28674993 0.17883879 0.2739378
0001b0 85 75 8b 3e d8 45 20 bd 73 26 65 3e 81 be 20 3e
       0.27238098 -0.03912911 0.22377948 0.15697671
0001c0 b5 90 8a 3e b3 37 65 3e a1 76 8a 3e 71 d9 26 3d
       0.27063528 0.22384529 0.27043632 0.040734712
0001d0 89 4d 8c 3e a2 b4 8a 3e 57 db fa 3d 5e 39 8b 3e
       0.27402905 0.27090937 0.12248867 0.27192205
0001e0 b6 ba bf 3e 3e 85 8b 3e c8 84 07 3e 2d 82 65 3e
       0.37447137 0.27250093 0.13234246 0.2241294
0001f0 1d d7 8a 3e 40 d2 8a 3e 0e a0 91 3e 21 65 af 3e
       0.27117243 0.27113533 0.28442425 0.34256843
000200 75 a9 8f 3f c9 e6 8f 3f 26 c1 d1 3e 71 d5 cd 3e
       1.1223589 1.1242305 0.40967673 0.40201905
000210 99 7b 42 3d 1d 79 b9 3e 7d 28 ef 3e 49 1b d4 3e
       0.047481153 0.36225215 0.46710578 0.41427067
000220 20 d2 2a 3f f2 d1 19 3f 46 71 f3 3e d5 52 d4 3e
       0.66726875 0.60085976 0.47547358 0.41469446
000230 a9 9c d3 3e 7a d5 d0 3e af 6a 80 3e 64 50 01 3f
       0.4133046 0.4078787 0.25081393 0.5051329
000240 e5 0f 09 3f 92 92 eb 3e f2 a1 c9 3e c2 0a f1 3e
       0.5353988 0.46010262 0.39381367 0.4707852
000250 6f c4 d3 3e ee a6 a0 3e 80 63 e2 3d 84 11 d1 3e
       0.41360804 0.31377357 0.11054134 0.40833676
000260 9e ce ac 3e 4a ed c7 3e 62 9c d4 3e 4f 23 cf 3e
       0.33751386 0.39048225 0.4152556 0.40456626
000270 7f 30 0f 3f b8 f1 eb 3e 49 31 f0 3e f4 a9 07 3f
       0.55933374 0.46082854 0.46912602 0.529937
000280 da 01 1e 3f 3d 62 6a 3e f8 46 e3 3e 38 30 d0 3e
       0.61721575 0.22889037 0.44390082 0.40661788
000290 e4 6f 3e 3e 69 37 07 3f e8 6f 8f 3e c7 93 55 3e
       0.1859737 0.52818924 0.28015065 0.20857154
0002a0 32 c6 5f 3e 51 a7 21 3f 6a bf 28 3c 27 4b 0d 3f
       0.2185295 0.6314593 0.010299543 0.551928
0002b0 cd ef fc 3e dd c8 c6 3e 40 6e d2 3e 26 e8 e1 3d
       0.49401703 0.38825122 0.4109974 0.11030607
0002c0 dd cf e7 3e 56 ce d1 3e a3 a5 eb 3e 21 37 7e 3e
       0.45275775 0.40977734 0.46024808 0.24825718
0002d0 74 cf 0c 3f e4 96 e2 3e f4 62 b8 3d 0a f5 06 3f
       0.5500405 0.44255745 0.09003249 0.5271765
0002e0 18 5a cd 3e 97 7c b8 3e ca 2e b5 3e 24 cc ce 3e
       0.401078 0.36032555 0.3538726 0.40390122
0002f0 de f1 f1 3e 65 b8 ec 3e cb d8 46 3e 6f c4 6e 3e
       0.47254843 0.46234432 0.19418637 0.23317121
000300 90 7e 77 3d 06 7d 78 3d 14 97 6a 3c 57 fb 6c 3c
       0.060423434 0.060666107 0.014318246 0.014464221
000310 65 b6 c4 3b 66 48 74 3b 01 62 8d 3c ee eb 51 3c
       0.0060031884 0.0037274598 0.017258646 0.012812598
000320 d5 59 24 3c bb 83 68 3c 51 cf 8e 3c 13 fa 5c 3c
       0.010031183 0.014191563 0.01743284 0.013487357
000330 10 be 50 3c d9 20 a9 3b d8 b9 4a 3b 94 42 94 3c
       0.012740627 0.0051613864 0.0030933525 0.018098153
000340 5d a3 91 3b 57 b9 b0 3c 46 4d 96 3c 37 9b aa 3c
       0.0044445232 0.021572752 0.018347394 0.020825965
000350 18 38 4e 3c 7b 3b 98 3b 68 07 b6 3b 79 11 66 3c
       0.012586616 0.0046457625 0.005555082 0.014042252
000360 a3 bc 76 3a a5 76 e0 3c 05 bf 51 3c ca 33 6f 3c
       0.00094122643 0.027400324 0.01280189 0.01459975
000370 92 28 92 3c 2f f2 ac 3c 44 33 a5 3c 41 e2 b3 3c
       0.017841611 0.021111576 0.020166047 0.021958472
000380 b0 49 42 3c 06 75 96 3b e3 a6 b5 3c 29 f6 88 3c
       0.011858389 0.004591587 0.022174304 0.01671894
000390 bf 0d eb 3b 66 4d a7 3c ef 81 d0 3b 39 5c eb 3b
       0.0071732695 0.020422649 0.0063631455 0.0071826247
0003a0 f8 e1 2e 3a 54 1f 4d 3c d0 a2 89 3a c8 fa 98 3c
       0.0006671245 0.012519676 0.0010500792 0.01867427
0003b0 e4 44 9c 3c 04 6e 86 3b 93 b8 76 3c 29 e9 bb 3b
       0.019075818 0.0041024704 0.015058654 0.005734582
0003c0 db e2 b5 3c 57 5e 84 3c a6 41 bb 3c 8e c2 ad 3b
       0.0222029 0.016158266 0.022858452 0.0053027337
0003d0 c3 7c a1 3c 79 91 cb 3c 49 6f 82 3b 82 94 87 3c
       0.019712811 0.02484964 0.0039805514 0.016550306
0003e0 5f 51 03 3c 4f a5 c6 3b 28 a9 fe 3b 25 68 85 3c
       0.008015006 0.006062187 0.00777163 0.016285012
0003f0 07 97 9b 3c bc 5d b8 3c a3 6c c4 3b 5a 1b 01 3c
       0.018992914 0.022505634 0.005994396 0.007880056

mamba_layers.0.D f4 [16]
000000 65 9c 4d bd 26 d5 a1 bf 10 08 39 bf a4 6f a3 bd
       -0.050197978 -1.2643173 -0.7227793 -0.07980278
000010 f0 71 84 3f f7 7d 9f bd 0d 8d c3 bc 21 2d 9f be
       1.0347271 -0.07787698 -0.02387097 -0.31089118
000020 15 39 55 3e c8 48 b6 3f 9b 83 5a bd 58 fd 5e bd
       0.20822556 1.4240961 -0.053348165 -0.054440826
000030 08 48 34 bd f8 eb 51 be 88 64 2a bf 0d e9 27 bc
       -0.044014007 -0.20500171 -0.6655965 -0.010248435

mamba_layers.0.in_proj.weight f4 [32, 8]
000000 40 c8 58 3f f0 39 5e 3f d8 90 52 3f 90 34 fe 3e
       0.8468056 0.86807156 0.82252264 0.49649477
000010 0e e7 56 3f a4 5d 5a 3f d9 c1 5d 3f 80 85 41 bf
       0.8394631 0.85299134 0.86623913 -0.7559433
000020 5a 58 92 3f f6 e4 92 3f 6e dd 91 3f 51 83 82 3f
       1.1433213 1.1476123 1.13957 1.0196325
000030 68 23 91 3f e1 1b 91 3f b5 08 92 3f 17 b2 9d bf
       1.133893 1.1336633 1.1408907 -1.2319974
000040 b5 01 be 3b 7b 2d ad 3c d9 df 9a 3c 13 78 b8 3c
       0.0057985433 0.02113985 0.018905567 0.022518193
000050 ae e5 cc 3b 32 e0 37 3c 38 06 bf 3c 9f f7 31 3d
       0.006252966 0.011222886 0.023318395 0.04344904
000060 3d 5a 31 3f 13 1a 1d 3f ca c7 d1 3e a3 20 a7 3e
       0.6927832 0.6136791 0.4097274 0.32642087
000070 ff 99 3c 3f 91 63 3e 3f 44 a0 1b 3f de de c2 be
       0.7367248 0.74370676 0.6079142 -0.3806066
000080 13 0d 60 b9 37 e0 49 3b 52 2b 81 3b fd 21 1e bc
       -0.00021367175 0.0030803808 0.0039419318 -0.009651658
000090 a7 dd 89 3a 11 68 0b 3b d5 5e 20 3b f7 06 67 3c
       0.0010518328 0.0021271745 0.0024470587 0.014100782
0000a0 cd 37 91 bf d2 39 8b bf 48 23 69 bf 47 f5 5f bf
       -1.1345154 -1.087702 -0.9106946 -0.8748364
0000b0 b6 73 94 bf d2 60 94 bf 28 92 8a bf 78 e0 65 3f
       -1.1597812 -1.1592047 -1.0825853 0.8979564
0000c0 24 3a 4e 3f 17 7b 2b 3f 52 02 d3 3e bb 8d cf 3e
       0.80557466 0.66984695 0.41212708 0.4053782
0000d0 bb 70 5f 3f 28 ce 60 3f 04 92 29 3f f5 45 c5 be
       0.8728139 0.8781457 0.6623843 -0.38529935
0000e0 f1 44 26 bf c6 2b 29 bf 3a 71 2e bf 28 be 00 bf
       -0.64948946 -0.6608242 -0.6814152 -0.50290155
0000f0 07 88 22 bf 23 d3 23 bf 78 55 29 bf 2d a4 28 3f
       -0.6348881 -0.63994044 -0.6614604 0.6587551
000100 1d f5 f5 3f 2d 8e eb 3f f5 7c d2 3f 6e 8b 19 40
       1.9215428 1.8402764 1.6444384 2.399135
000110 bf 09 fb 3f 20 2e f8 3f 74 76 ec 3f e3 97 ef bf
       1.9612349 1.9389076 1.8473649 -1.8718227
000120 7c d7 ca bf bb 84 c1 bf d9 83 a8 bf 93 ab 04 c0
       -1.5847011 -1.5118631 -1.3165237 -2.072972
000130 4a dc cf bf 98 28 cd bf d6 43 c2 bf fe 88 c1 3f
       -1.6239102 -1.6028013 -1.5176952 1.5119932
000140 23 4e 35 bf e6 34 20 bf 98 9e da be 60 94 ae be
       -0.7082235 -0.62580717 -0.42699122 -0.34097576
000150 b2 e3 3f bf 8b 6b 41 bf 17 bd 1e bf 27 a0 c0 3e
       -0.7495681 -0.7555472 -0.6200728 0.37622187
000160 ee c4 33 bf fc 01 1b bf 66 23 cd be ed ee 99 be
       -0.70222366 -0.605499 -0.4006607 -0.30065098
000170 d4 34 3f bf f2 83 41 bf f9 d1 19 bf 36 21 ba 3e
       -0.74689984 -0.7559196 -0.6008602 0.36353463
000180 15 e6 2c bf b3 14 18 bf 20 9d c6 be 44 28 9a be
       -0.6753858 -0.59406585 -0.38791752 -0.30108845
000190 e3 8a 38 bf bc 4b 3b bf 04 66 16 bf 3b 0b b8 3e
       -0.72086924 -0.73162436 -0.58749413 0.35946068
0001a0 8e 67 29 3f d1 07 1c 3f 00 06 f4 3e 3e d7 ec 3e
       0.66173637 0.60949427 0.47660828 0.46257967
0001b0 66 8e 31 3f c9 bc 30 3f 3d f7 1b 3f a4 b1 0f bf
       0.6935791 0.69038063 0.6092413 -0.56130433
0001c0 bd cf 0b bf f1 dd 12 bf a7 29 1b bf 22 11 e5 be
       -0.5461386 -0.57369906 -0.6061043 -0.44739634
0001d0 6f e0 0a bf 30 4f 0c bf 85 03 13 bf 73 bc f1 3e
       -0.5424871 -0.5480833 -0.57427245 0.47214088
0001e0 9b 12 37 bf c8 49 25 bf da 4d ee be e4 1f 9e be
       -0.71512765 -0.64565706 -0.4654377 -0.30883706
0001f0 5c 02 3f bf 29 43 41 bf 12 15 24 bf 6b 71 e1 3e
       -0.74612975 -0.75493103 -0.6409465 0.44031844
000200 0a 26 10 be b2 d3 29 be 95 4c 3b be 38 d7 92 bd
       -0.14077011 -0.16584662 -0.18290932 -0.07169956
000210 20 1f 09 be 34 c0 0e be be e0 27 be c5 bf 0e 3e
       -0.1339078 -0.13940507 -0.16394326 0.13940342
000220 37 91 82 3d e0 62 8c 3d 8b 5e 80 3d b2 00 67 3d
       0.06375354 0.068547964 0.06268033 0.056397147
000230 a7 99 82 3d 09 27 7f 3d 49 2b 80 3d af 59 ba bd
       0.06376963 0.062293086 0.06258256 -0.09099137
000240 78 e0 24 be 54 f8 39 be 08 6d 82 be f7 99 87 3d
       -0.16101253 -0.18161136 -0.2547381 0.06621163
000250 cc e9 17 be 46 fe 1a be 8b fc 33 be 37 d3 5c 3e
       -0.1483528 -0.1513606 -0.17576806 0.21564947
000260 8e f6 72 be 6f 54 53 be ff 7f 13 be 92 48 d4 bd
       -0.23726866 -0.20637678 -0.14404295 -0.10365404
000270 da cb 81 be e0 29 84 be 0a 1f 4e be 8d fb 0f 3e
       -0.2535084 -0.25813198 -0.20129028 0.14060803
000280 da 62 0f be aa 59 26 be c4 0f 33 be 97 01 e2 bd
       -0.14002553 -0.16245142 -0.17486483 -0.110354595
000290 27 a6 08 be 63 69 0c be f1 96 23 be 3f d9 d5 3d
       -0.13344632 -0.13712077 -0.15975548 0.10441827
0002a0 c6 51 d7 be 3a a1 b1 be 6c bf 7c be eb 67 81 be
       -0.42054576 -0.3469332 -0.24682397 -0.25274596
0002b0 e7 70 df be f1 69 dc be 63 74 b1 be 53 9a a0 3e
       -0.43640825 -0.43049577 -0.3465911 0.3136774
0002c0 4f 02 a3 3e 67 93 85 3e a5 64 18 3e 32 26 2a 3e
       0.318377 0.26089022 0.14882143 0.16616133
0002d0 b8 3b b3 3e e9 d1 b3 3e 7c 6f 86 3e 20 86 15 be
       0.350065 0.35121086 0.2625693 -0.14601946
0002e0 2b 37 12 bf 4f 62 16 bf c4 cd 22 bf d1 4c c4 be
       -0.5711543 -0.58743757 -0.63595223 -0.38339856
0002f0 21 b1 0e bf fc 70 10 bf d0 36 16 bf 24 87 24 3f
       -0.5573903 -0.564224 -0.5867739 0.6426871
000300 28 f7 0d be 56 4f 0a be 35 31 0d be 5a 6c 13 be
       -0.13863814 -0.13506827 -0.13788302 -0.14396802
000310 67 8e 0e be e4 3e 0e be a3 a7 09 be 7e 27 07 3e
       -0.1392151 -0.13891178 -0.13442855 0.13198659
000320 fe 84 0e be 5b 5b f5 bd 3c 45 d1 bd 3c e8 3c be
       -0.1391792 -0.11980315 -0.102182835 -0.18447965
000330 87 1c 15 be 16 dd 10 be 7c f8 f6 bd 2a ad 39 3e
       -0.14561664 -0.14146838 -0.120591134 0.18132463
000340 27 85 3a be 0f 10 27 be 83 5b e8 bd c0 43 a9 bd
       -0.18214856 -0.1631472 -0.113455795 -0.082648754
000350 99 9e 45 be 4c ca 4a be 6c f3 23 be 6a 42 bb 3d
       -0.19298781 -0.19803733 -0.16010827 0.09143527
000360 69 6c 13 be 20 f6 00 be d8 b9 b8 bd f4 c2 62 bd
       -0.14396824 -0.12593889 -0.09019822 -0.055361703
000370 69 fa 1b be 76 90 1f be 02 24 fd bd b2 0c b2 3d
       -0.15232243 -0.15582451 -0.123603836 0.08693828
000380 c0 37 ec bb cd 2e e6 bc 25 b9 24 bd 65 52 0c bb
       -0.0072087944 -0.028098488 -0.04021563 -0.0021411416
000390 fe ba ff 3a 36 ee 4b bb 82 07 c2 bc e7 95 c1 3c
       0.0019510684 -0.0031117327 -0.02368522 0.02363105
0003a0 14 96 d0 be ae 7a bc be 20 92 8b be 03 aa 74 be
       -0.407395 -0.36812347 -0.27259922 -0.2389298
0003b0 a7 7c dc be 23 00 de be f6 47 b9 be 58 5b 88 3e
       -0.43063852 -0.4335948 -0.36187714 0.2663219
0003c0 60 82 1c bf 73 ee 0b bf 10 84 04 bf 2f a7 f3 be
       -0.61136436 -0.5466072 -0.5176401 -0.47588488
0003d0 b6 36 1b bf be 4e 1a bf 10 63 0a bf 70 bf 3a 3f
       -0.6063036 -0.602764 -0.5405741 0.7294836
0003e0 92 2b bc 3c a2 a8 36 3c 10 2d fa b9 65 b1 1d 3c
       0.022969995 0.011148604 -0.0004771729 0.009624814
0003f0 9c 22 e1 3c a4 a9 e2 3c ba 66 81 3c a8 18 9f bb
       0.027482323 0.027668782 0.015796054 -0.004855234

mamba_layers.0.conv1d.weight f4 [16, 1, 4]
000000 8a 3f 5b bf 08 88 50 bf 2f 31 42 bf 63 65 2d bf
       -0.8564383 -0.8145757 -0.758563 -0.6773283
000010 d1 4b f1 bf 1e ff fc be 71 77 fc be 54 74 22 bf
       -1.8851262 -0.4941339 -0.49309877 -0.6345875
000020 09 70 5c bb fc 3f 17 bc b8 cd 1b bc 33 1b 1d bc
       -0.0033636114 -0.009231564 -0.009509496 -0.009589004
000030 54 06 30 bf ce 31 52 bf 75 49 51 bf b7 3b 4a bf
       -0.68759656 -0.82107246 -0.8175271 -0.7899737
000040 54 46 26 be 8b 3a 02 3c 02 14 03 3c 4b 64 04 3c
       -0.16237766 0.007948528 0.008000376 0.008080552
000050 6a de 5f 3f cb c4 0c 40 f6 a0 ad be 29 91 aa be
       0.8744875 2.1995113 -0.33911866 -0.33313873
000060 31 6e 65 bf cc 18 8a bf 05 d9 89 bf f9 b1 62 be
       -0.89621264 -1.0788817 -1.0769354 -0.22138204
000070 30 6d 0b 3f da 73 2f 3f 72 5b 2f 3f 3c 61 2f 3f
       0.5446348 0.6853615 0.6849891 0.6850774
000080 30 c2 11 c0 33 64 16 3f af 0b 16 3f a2 24 15 3f
       -2.2774773 0.5874664 0.5861158 0.5825902
000090 5f 37 11 40 1f d3 0f bf 13 b4 0f bf 7d e4 0e bf
       2.2690046 -0.5618152 -0.56134146 -0.55817395
0000a0 2a cf 52 3f 6d 78 4c 3f 32 5f 4b 3f 99 83 41 3f
       0.8234736 0.79871255 0.7944213 0.7559143
0000b0 c4 0a 3e 3f 29 07 55 3f 1f f8 54 3f b4 f4 3d 3f
       0.7423518 0.8321405 0.831911 0.7420151
0000c0 d0 7d 59 3f 92 87 3c 3f 35 56 3b 3f 5d 4c 3e 3f
       0.849576 0.73644364 0.73178416 0.7433527
0000d0 82 f0 28 bf 3a f3 3f bf 96 33 40 bf 5d 3f 42 bf
       -0.65991986 -0.7498051 -0.75078714 -0.75877935
0000e0 14 d8 f4 3e 08 33 12 3f 15 29 12 3f 30 28 12 3f
       0.47821105 0.5710912 0.57093936 0.5709257
0000f0 42 c6 86 3f 3e 17 36 3f 91 16 36 3f 46 82 30 3f
       1.0529253 0.71129215 0.71128184 0.6894878

mamba_layers.0.conv1d.bias f4 [16]
000000 d4 2d a3 bf f4 10 4f bf 2f fa a1 bf 2c 18 d9 b8
       -1.2748361 -0.80885243 -1.2654475 -0.00010351869
000010 29 04 a3 bf 8a c4 8d bf cb b4 61 b9 65 03 21 bf
       -1.2735645 -1.1075604 -0.00021525023 -0.62895805
000020 f8 23 3d 3f 33 4d 44 3f 2b 8e 2a 39 36 94 06 3a
       0.7388301 0.76680297 0.00016265425 0.00051337795
000030 67 f8 9b 39 c0 fe 49 39 9b 51 86 bf 69 03 a2 bf
       0.00029748978 0.00019263756 -1.0493654 -1.2657291

mamba_layers.0.x_proj.weight f4 [129, 16]
000000 04 b6 3b 3f 48 8d 9c 3d 8f a8 0a bc 60 b2 6d 3b
       0.7332461 0.07644135 -0.008463039 0.003626965
000010 08 11 ba 3c 73 55 4a 3f 6c 35 82 3d 17 3d 4f 3e
       0.0227132 0.79036635 0.06357846 0.20238148
000020 85 01 b4 3f 17 c0 a3 3f c2 09 5c 3c 02 c9 8b bc
       1.4062964 1.2792996 0.013430061 -0.017063621
000030 e6 43 be bc 91 9b af bc f7 cf 85 bb 20 6b 52 3f
       -0.023225736 -0.021436485 -0.004083629 0.8219471
000040 93 2c 45 bf 93 29 d4 be 68 1c a1 3f 77 60 cd bd
       -0.7702114 -0.4143797 1.2586794 -0.10028165
000050 dd 21 a0 3f 40 40 61 bf b5 e5 12 bd 73 b0 d3 3d
       1.2510334 -0.8798866 -0.035863597 0.103363894
000060 32 21 84 3f bb 57 74 3f 77 53 05 3d 42 d4 14 bd
       1.032263 0.95446366 0.0325503 -0.036335237
000070 9c 79 ba bd b3 46 38 3c d4 18 b8 3e 8b 65 8e bf
       -0.091052264 0.011247325 0.35956442 -1.1124738
000080 a8 56 45 3f 43 46 d2 3e 86 34 a1 bf a0 7b cc 3d
       0.7708535 0.4106923 -1.2594154 0.09984517
000090 fe 3d a0 bf 45 d4 60 3f 5a cd 11 3d b6 a5 d3 bd
       -1.2518919 0.878239 0.03559623 -0.10334341
0000a0 7b 2b 84 bf a1 71 74 bf be 8c 05 bd 50 5c 14 3d
       -1.0325769 -0.95485884 -0.032604925 0.03622085
0000b0 d9 52 b9 3d f9 39 3f bc 1f 85 b8 be 91 cf 8d 3f
       0.09049005 -0.011671537 -0.36039063 1.1078969
0000c0 1e 35 27 3f 82 6a 4c 3f b3 bb 33 3f 7d 2e 2e ba
       0.65315425 0.7985002 0.7020828 -0.00066445005
0000d0 d3 97 30 3f 4a 70 26 3f 7b 8d f9 bc cb c0 d0 3e
       0.68981665 0.6501509 -0.030462971 0.4077209
0000e0 5c 9c 8d bf 63 9b 8a bf 0b af be bb 26 81 1b 3c
       -1.1063342 -1.082867 -0.0058192066 0.009491241
0000f0 74 ad 31 3c e8 e5 2a 3c 74 28 82 3e 9d 1e 30 3f
       0.010844577 0.0104307905 0.25421488 0.6879671
000100 44 5b 27 bf bc a1 4a bf aa 23 31 bf 62 63 b0 3b
       -0.65373635 -0.7915304 -0.69195044 0.005382941
000110 b6 e5 2d bf 1f 4f 27 bf 85 8f e5 3c f1 82 cf be
       -0.67928636 -0.65355104 0.028022537 -0.40529588
000120 d3 8a 8b 3f 64 81 88 3f 3a 1a dd 3b 12 a8 dc bb
       1.0901741 1.0664487 0.006747511 -0.0067339027
000130 8e fb 2c bc da 8e 1a bc 9d 17 7f be aa 4e 30 bf
       -0.010558022 -0.0094334725 -0.24911352 -0.6887003
000140 64 95 6e 3d f7 46 39 3e 6e a3 32 3c 2b b5 3f bb
       0.05824794 0.18093477 0.0109032225 -0.0029252272
000150 0e 31 c0 bc 34 b3 a6 3d ac d0 d1 bc d1 09 c1 3c
       -0.023460891 0.08139649 -0.025612198 0.023564251
000160 3d 14 35 be 9c 3e d7 bd 3d aa 67 bc 7f 34 52 bb
       -0.17683502 -0.10509989 -0.014139709 -0.0032074747
000170 81 00 64 3c 3e eb 80 bd b9 cf 97 bc 61 d5 8d 3d
       0.013916136 -0.06294869 -0.018531667 0.069254644
000180 d1 f9 79 3e e4 7b 58 3e 6e 1d cf be 5b de 9c bb
       0.24411704 0.2114101 -0.4045214 -0.004787249
000190 1a 6b cd be 6a 76 6d 3e 40 6b 50 bb 22 fd 57 3e
       -0.40120775 0.23189703 -0.0031802207 0.21092656
0001a0 21 be 40 3e 97 df 06 bf c3 84 d6 3b 4e f2 c8 3b
       0.18822528 -0.5268492 0.006546588 0.0061324006
0001b0 68 e2 42 bb 71 58 63 bc c0 c0 aa 3e fa 51 6d 3e
       -0.0029737 -0.013876067 0.33350182 0.23175803
0001c0 ac 25 9a bc 30 98 f9 3e 9a fa b1 3e 44 23 97 bc
       -0.018816791 0.48748922 0.34761506 -0.018449433
0001d0 77 67 a5 3e 3c 65 7d bd 47 2d 41 bb 8f fd 95 be
       0.323055 -0.061864123 -0.002947645 -0.29295012
0001e0 19 70 30 c0 ae 9b 31 c0 53 10 de bb 5c c7 1f bc
       -2.756842 -2.775127 -0.0067768483 -0.009752121
0001f0 a7 47 be b9 5b cd 7e bd 26 df 12 be b8 f4 88 bd
       -0.0003629301 -0.06220756 -0.14342937 -0.066873014
000200 ca fa 26 3f 4c da 4c 3f 6c e8 34 3f 00 48 a9 3a
       0.65226424 0.80020595 0.7066715 0.0012915134
000210 f7 d3 31 3f 31 01 26 3f 4a cc 02 bd 4f f5 d0 3e
       0.6946406 0.6484557 -0.031933106 0.40812156
000220 79 65 8e bf 06 b0 8b bf d5 7b ca bb d7 05 37 3c
       -1.1124717 -1.0913093 -0.0061793127 0.011170826
000230 1d 22 3b 3c f9 23 2f 3c e8 18 83 3e f7 e5 2f 3f
       0.011421707 0.010689729 0.2560494 0.68710274
000240 f9 d1 11 bd e5 87 b0 3d 00 f0 ba 3e 5f 97 9d bc
       -0.035600636 0.0861967 0.3651123 -0.019237218
000250 d1 4e af 3e dd 1f 3d bd 7a be 13 bb c2 cc 01 bf
       0.3423982 -0.046172965 -0.0022543953 -0.5070306
000260 5c cc 3e c0 7d c4 3c c0 9c 63 84 b8 61 26 de bb
       -2.981223 -2.9494927 -6.312804e-05 -0.0067794775
000270 a1 dc 3b 3c 54 64 ca bd d1 1a 5a be 84 0d 51 bd
       0.011466176 -0.09882417 -0.21299292 -0.05103828
000280 af 46 2d 3e f8 18 7c be 8e 8c cc be 06 4f 07 3d
       0.16921495 -0.246189 -0.39950985 0.033034347
000290 ef 0a c0 be 5d 1a 11 3e 85 fd cb bb 11 fc d6 3e
       -0.37508342 0.14170213 -0.0062252902 0.41989186
0002a0 64 a6 35 40 77 02 35 40 e6 1c 02 3d 47 e7 90 3c
       2.8382807 2.8282754 0.03176584 0.017688407
0002b0 46 ee 89 bb fb b2 01 3e c9 12 0a 3e a4 cc 1f 3e
       -0.0042093126 0.12665932 0.13483728 0.15605408
0002c0 46 37 84 bc 62 e3 fe 3e 84 c0 b5 3e 47 e3 8f bc
       -0.016139638 0.49782854 0.3549844 -0.017564429
0002d0 bf 05 a9 3e d6 e0 39 bd be b7 91 bb 3f 61 93 be
       0.33012196 -0.045380436 -0.0044469526 -0.2878513
0002e0 fe b2 30 c0 30 7d 31 c0 f2 76 cc bb c2 c4 fc bb
       -2.7609248 -2.7732658 -0.0062397653 -0.007713885
0002f0 f7 de a0 bb fc 6c 76 bd 0a 36 11 be 58 a1 7e bd
       -0.004909392 -0.06016253 -0.1418077 -0.06216559
000300 8a 58 27 3f 1a 05 4d 3f 09 8e 34 3f 6e 39 de 3a
       0.65369475 0.8008591 0.7052923 0.0016954371
000310 ec 76 31 3f c1 95 26 3f 19 0b fc bc a2 5e d1 3e
       0.69322085 0.65072256 -0.03076701 0.40892512
000320 2e 1b 8e bf df 44 8b bf 6d 79 b8 bb 5e 43 37 3c
       -1.1102045 -1.0880393 -0.0056297095 0.011185495
000330 0a 0a 48 3c 08 e5 31 3c b9 f3 82 3e b5 5f 30 3f
       0.012209425 0.010857828 0.2557657 0.6889604
000340 00 19 26 bf 38 11 4c bf 29 ac 35 bf e9 3a 87 ba
       -0.64881897 -0.79713774 -0.7096582 -0.0010317239
000350 5c 75 32 bf 7d 01 25 bf e3 8f 0a 3d ac 40 d0 be
       -0.69710326 -0.64455396 0.033828627 -0.4067434
000360 70 20 8f 3f 5c 96 8c 3f 55 a3 c7 3b 9f 88 36 bc
       1.1181774 1.0983386 0.0060924687 -0.011140971
000370 55 30 1b bc a3 2d 2c bc 79 35 83 be a5 f2 2e bf
       -0.0094719725 -0.0105089275 -0.25626734 -0.68338996
000380 25 5c 50 3d f9 18 44 3e cc 61 39 bf a3 d6 11 bc
       0.050869126 0.19150151 -0.7241485 -0.008901271
000390 d1 c5 36 bf d7 61 15 3d e7 41 df bb ad 1e c7 39
       -0.71395594 0.03647026 -0.006813276 0.00037979093
0003a0 5d 4d bf 40 e8 4b 8b 40 02 6d 65 bb 7f aa 34 bc
       5.9781938 4.353016 -0.00350076 -0.011026978
0003b0 c3 ea 46 bc c3 18 9f bc fc e2 fa 3d 4a 7f 33 3d
       -0.0121409325 -0.019420987 0.12250325 0.043822564
0003c0 fe 61 98 3d 1a 65 6b 3d 5e 62 c6 be d2 19 21 bb
       0.074405655 0.057469465 -0.38746923 -0.002458204
0003d0 fa 67 c3 be 5e 8f 77 3d 05 21 26 3b 55 90 11 3e
       -0.38165265 0.06043946 0.002534927 0.14215215
0003e0 d0 30 c3 3e 44 f8 90 3e 84 b2 1e bc 8c 88 2b bc
       0.38123178 0.28314412 -0.009686116 -0.010469567
0003f0 40 92 c5 ba a7 d1 b8 3c a0 26 99 3e 69 e2 7a 3d
       -0.0015073493 0.022560908 0.2991228 0.061251078

mamba_layers.0.dt_proj.weight f4 [16, 1]
000000 0a dd b7 be 16 17 da 3f fc 27 bd 40 c7 8e 19 be
       -0.35910827 1.7038295 5.911131 -0.14995871
000010 6c cb 44 3f 61 98 b7 3f 92 74 3d 3f d1 a9 3e bf
       0.768729 1.4343377 0.74006 -0.7447787
000020 02 dd 94 3f 68 83 cb c0 91 00 63 3d b4 05 e1 3d
       1.1629946 -6.359791 0.055420462 0.10987416
000030 2d 6a 34 be 0c c8 44 be e9 53 a6 be b1 0a 08 3e
       -0.17618628 -0.19216937 -0.32485893 0.13285328

mamba_layers.0.dt_proj.bias f4 [16]
000000 6b 85 51 bf 6a b2 bd 3e 5a b1 c9 bd 92 2d 19 3d
       -0.81844205 0.37050182 -0.0984828 0.037396975
000010 3b 07 31 bf 04 4e 2a 3f a6 16 94 3e b0 30 db be
       -0.6915166 0.6652529 0.2892353 -0.42810583
000020 10 7d 80 3e 91 bb 89 3f 59 cc b5 3d 48 51 79 bc
       0.25095415 1.0760366 0.08876867 -0.015217133
000030 1b 48 8d bd 7f 0b 20 be 34 18 06 be 56 b7 97 3c
       -0.06898519 -0.15629385 -0.1309517 0.018520039

mamba_layers.0.out_proj.weight f4 [8, 16]
000000 51 d1 f6 3e 68 6e 36 c0 99 4a 71 be 8a 4a 35 3c
       0.4820657 -2.8504887 -0.23563613 0.011065135
000010 c7 c3 81 bf 72 8c 36 be cb be 59 3d b7 01 f8 3d
       -1.0137872 -0.17827013 0.05316047 0.12109702
000020 6f 2a 01 bf 9e 6b 9b bf a7 9c 2f bd 3a 6d 83 3d
       -0.50455374 -1.2142217 -0.042874005 0.06417318
000030 97 c8 d9 3b 5e 7b 88 3d 02 90 04 3f 29 13 67 3c
       0.0066462266 0.066641554 0.5178224 0.014103689
000040 80 cb 3a bf 36 9e 46 40 fc 02 61 bf 3a d2 3e be
       -0.72966766 3.1034064 -0.8789518 -0.18634883
000050 c1 d6 84 3f 63 ee 0b be 8e 8f b7 be 14 d7 06 bf
       1.0378038 -0.13665156 -0.3585171 -0.52671933
000060 53 73 3a be 50 cd 8c 3e 09 fa 3b bd bb 04 3b be
       -0.18208055 0.2750039 -0.04589275 -0.18263523
000070 d5 da 24 be 3e ce 9b be 3d e4 85 bf 9d bc 49 bd
       -0.16099103 -0.30430788 -1.0460278 -0.04925214
000080 8a c8 32 3f 5c 09 26 bf b8 1e 9c 3e 5f dd b6 3d
       0.6983725 -0.6485803 0.30492187 0.08928942
000090 6d 16 2f bf d5 d1 d8 bf 8e 28 f2 bd 07 22 fc 3d
       -0.68393594 -1.6939036 -0.118241414 0.12311178
0000a0 97 26 1b c0 5c de 69 bf d5 8f 99 3d 27 63 ec 3d
       -2.4242303 -0.9135492 0.07498137 0.11542349
0000b0 f3 85 98 3d 59 d9 09 3e d6 3d 44 3e 58 05 69 3d
       0.07447424 0.13461818 0.19164214 0.05688986
0000c0 b4 ae 0b bf 48 58 41 3f 54 5d 6f bd 6c e7 03 3d
       -0.5456345 0.7552533 -0.058438614 0.032203123
0000d0 22 c3 17 3f 65 95 b2 3f c8 c5 86 3e 21 ef 58 bd
       0.59282124 1.3951842 0.2632277 -0.052962426
0000e0 ce 41 2f 40 d0 72 8a 3f 5f 40 0d 39 58 74 07 3c
       2.7383914 1.0816288 0.00013470788 0.008267485
0000f0 52 69 44 3d c8 32 83 3c 6b 9a 35 b9 e5 0d ef bc
       0.047952004 0.016015425 -0.0001731903 -0.02918143
000100 a8 84 56 3e 27 1b 11 c0 aa 54 0e bf 2d 19 5e bd
       0.20949042 -2.2672822 -0.5559794 -0.05422323
000110 6e d0 4c bf 4c c6 ec bd 5c 0f bb bd 2f 03 f6 3c
       -0.8000554 -0.115612596 -0.09133789 0.030030815
000120 d7 a6 db be e7 12 2a bf ee 52 92 bd 43 42 07 bc
       -0.42900726 -0.6643509 -0.07144724 -0.008255544
000130 62 e8 4e bd 6d 22 46 bd ea cf 17 3e 2a aa 3d bb
       -0.050514586 -0.048372675 0.14825407 -0.0028940537
000140 26 fb a2 3d a2 59 e4 bf 7c 8f 2a bf 13 0f 83 bd
       0.07958059 -1.7839854 -0.6662519 -0.063993596
000150 9c 91 28 bf 40 97 88 3d 89 a7 73 bd e7 5f 52 bd
       -0.6584718 0.06669474 -0.059485946 -0.05136099
000160 a0 4b e8 be 22 00 41 bf ac 15 9c bd 71 fd f3 bc
       -0.45370197 -0.7539083 -0.07621321 -0.029783936
000170 ce 85 a1 bd fa f4 a4 bd 7b c1 b2 3d 35 ad 99 bc
       -0.07886849 -0.08054538 0.0872831 -0.01875935
000180 fe 18 3b bf f8 e1 46 40 af 52 61 bf b5 04 3e be
       -0.7308501 3.107542 -0.8801679 -0.18556483
000190 5c 20 85 3f 53 fc 09 be 27 63 b7 be 46 3d 05 bf
       1.04005 -0.1347516 -0.35817835 -0.5204662
0001a0 53 b6 3a be 9c 63 83 3e df a6 4d bd 52 ae 42 be
       -0.18233614 0.25661933 -0.05020797 -0.1901181
0001b0 2a 44 2c be c8 93 9c be 1b ed 84 bf 51 5b 80 bd
       -0.16822878 -0.30581498 -1.0384859 -0.06267417
0001c0 0b 25 cf 3d 73 ce 1a 40 32 3e 7b 3f a7 d0 c9 3d
       0.10114487 2.4188507 0.9814178 0.098542504
0001d0 d5 60 1a 3f dd 7f d4 3d c4 db 16 3f da 12 e3 3d
       0.60304004 0.103759505 0.58929086 0.1108758
0001e0 15 e6 34 be e1 56 72 3f 2f a7 09 3e 74 56 a2 3d
       -0.17665894 0.94663817 0.13442682 0.07926646
0001f0 8b b7 d4 3d a9 93 98 3d b5 4b 5b 3e 22 bd da 3c
       0.103865705 0.07450039 0.21415599 0.026701514

norms.0.weight f4 [8]
000000 a4 d9 c7 3e 9c ef 11 3d 68 f9 b8 3f 5f da bb 3f
       0.39033234 0.0356289 1.4451113 1.4676017
000010 37 89 8f 3d db db 5e 3d a9 73 b3 3c 34 6a e4 3c
       0.070085935 0.05440889 0.021905737 0.027882673

norms.0.bias f4 [8]
000000 7b 2e dd be d2 6a 13 3d b9 39 d6 be b8 01 ca 3e
       -0.43199524 0.035990544 -0.41840914 0.39454436
000010 ee bd 6c bd 33 14 2b bd 9d 6f ae 3c a8 70 ba 3c
       -0.05779832 -0.04176731 0.021293456 0.022758797

cl_head.weight f4 [1, 8]
000000 80 84 69 be a8 47 43 3b e0 cb f2 bf 64 41 22 40
       -0.22804451 0.002979735 -1.8968468 2.5352411
000010 fb 46 dd 3a 5f 30 b4 bb f0 a0 f7 3a 52 5f 2e 3b
       0.0016882116 -0.0054989303 0.0018892568 0.0026607108

exp_avg f4 [2, 8]
000000 74 65 9d 38 07 e2 a9 38 08 98 e0 39 ee f5 ad b9
       7.5052405e-05 8.100649e-05 0.00042837881 -0.00033180363
000010 52 a9 74 38 f0 e2 84 38 b7 34 aa 38 8b c1 ab 36
       5.8331825e-05 6.336521e-05 8.1160506e-05 5.1187285e-06
000020 00 00 00 00 00 00 00 00 00 00 00 00 00 00 00 00
       0.0 0.0 0.0 0.0
000030 00 00 00 00 00 00 00 00 00 00 00 00 00 00 00 00
       0.0 0.0 0.0 0.0

exp_avg_sq f4 [2, 8]
000000 42 2f ca 35 af e8 21 37 31 b2 b6 38 dc 46 68 38
       1.5063927e-06 9.650524e-06 8.711627e-05 5.5379103e-05
000010 70 d3 a4 35 ea b6 d3 35 98 e7 22 37 8e 48 91 34
       1.2280489e-06 1.577396e-06 9.709875e-06 2.7061145e-07
000020 00 00 00 00 00 00 00 00 00 00 00 00 00 00 00 00
       0.0 0.0 0.0 0.0
000030 00 00 00 00 00 00 00 00 00 00 00 00 00 00 00 00
       0.0 0.0 0.0 0.0

exp_avg f4 [16, 64]
000000 c6 ec 22 b3 13 28 22 b3 1d dc 48 b4 b4 c6 3f b4
       -3.793391e-08 -3.775501e-08 -1.8706528e-07 -1.7860549e-07
000010 92 f7 3d ac f7 87 34 b1 88 51 0a 2f ea da 4c b4
       -2.6995945e-12 -2.6270734e-09 1.2579993e-10 -1.9078621e-07
000020 f1 29 fd 2e 14 26 07 2f 0b 6b 0b 2f fa 85 4c b4
       1.1512558e-10 1.2291707e-10 1.2680006e-10 -1.9047721e-07
000030 ca 67 4d b4 45 8b 6d 2f df e4 2d 2d 53 e2 0b 2f
       -1.9129871e-07 2.1604503e-10 9.884731e-12 1.2722383e-10
000040 86 7e b6 2e d4 28 0a 2f ab 49 2d b4 9d 16 0b 2f
       8.298877e-11 1.2565532e-10 -1.6138681e-07 1.265001e-10
000050 5a 09 4e b4 ca a2 06 2f d9 db 80 ad 7a 71 47 b4
       -1.9188647e-07 1.2245063e-10 -1.4649547e-11 -1.8574602e-07
000060 a3 ae 22 b1 dd 8e 6d 2e 81 1a 4e b4 8e 48 43 b4
       -2.3673372e-09 5.401445e-11 -1.9194887e-07 -1.8187185e-07
000070 8a 01 08 2f 92 30 0a 2f 12 ec 0a 2f c1 5c 05 2f
       1.2369675e-10 1.2568283e-10 1.2634896e-10 1.2129232e-10
000080 ad 7c 02 2f 73 58 0f b0 0f 61 0a 2f 24 b1 45 b4
       1.1867725e-10 -5.214879e-10 1.2585509e-10 -1.8411498e-07
000090 77 25 ac ac c4 03 06 2f c6 b6 59 ae a1 45 c4 b0
       -4.8926935e-12 1.2188567e-10 -4.9502423e-11 -1.4280667e-09
0000a0 a6 a9 06 b1 ac f1 01 2f c0 50 c9 ad ea 25 07 2f
       -1.9596e-09 1.1818341e-10 -2.2886915e-11 1.2291648e-10
0000b0 d8 e3 0a 2f 98 f8 25 2d ea e1 49 b4 de 6d c4 2a
       1.2631973e-10 9.434363e-12 -1.8801771e-07 3.489283e-13
0000c0 6a 6e 09 2f 0d d1 48 b4 69 0a 0b 2f 0e b8 91 2c
       1.2499304e-10 -1.8702504e-07 1.2645675e-10 4.141582e-12
0000d0 54 12 07 2f 32 39 0a 2f 50 f7 13 ab 4b 6d 09 2f
       1.228469e-10 1.2571347e-10 -5.2568106e-13 1.2498906e-10
0000e0 83 9b 4c b1 d6 73 02 2f 22 ce 0a 2e f4 34 42 b4
       -2.9774305e-09 1.1864584e-10 3.156065e-11 -1.8086922e-07
0000f0 a1 84 08 2f 89 c8 0a 2f 26 d0 28 b0 02 88 74 b1
       1.2416247e-10 1.2622271e-10 -6.141384e-10 -3.5583985e-09
000100 3d 29 bf 25 36 0e bf 25 14 33 26 27 7a a5 24 27
       3.3161163e-16 3.3142848e-16 2.3064817e-15 2.2849277e-15
000110 5c ce 1c 26 28 c5 64 25 ed 45 56 28 8d 14 27 27
       5.440304e-16 1.9842647e-16 1.1894549e-14 2.3187046e-15
000120 ec bf 46 28 4b 37 5b 28 b4 85 57 28 ac 82 26 27
       1.1032824e-14 1.2168932e-14 1.196389e-14 2.3107965e-15
000130 75 df 27 27 97 f2 be 28 e7 01 92 24 dc 4e 59 28
       2.3297042e-15 2.1199444e-14 6.332063e-17 1.206302e-14
000140 48 79 04 28 c3 b5 55 28 11 91 1f 27 57 1f 57 28
       7.353771e-15 1.18632885e-14 2.2144323e-15 1.1941693e-14
000150 85 14 28 27 cd d9 79 28 1f 72 9b 22 4c 55 26 27
       2.3325807e-15 1.3869505e-14 4.2133665e-18 2.3083367e-15
000160 be b5 0e 23 cf 87 0e 27 dd 64 27 27 27 b0 25 27
       7.736321e-18 1.978008e-15 2.3230584e-15 2.2993842e-15
000170 57 35 5c 28 34 76 55 28 cb c7 56 28 73 f4 56 28
       1.22240195e-14 1.18495064e-14 1.19227096e-14 1.1932393e-14
000180 cc 01 53 28 bb 3c de a4 a4 2a 55 28 39 e2 25 27
       1.17132425e-14 -9.6380034e-17 1.18331214e-14 2.3020985e-15
000190 5d bd b4 a4 e5 4d 58 28 49 3a b3 26 f7 4c 4b 25
       -7.838335e-17 1.2007299e-14 1.2436418e-15 1.763352e-16
0001a0 d5 ae 67 a5 50 2d 52 28 a1 8c 58 24 e7 a6 5a 28
       -2.0095292e-16 1.1667167e-14 4.695665e-17 1.2137622e-14
0001b0 a7 75 57 28 7d 64 2e a9 74 43 26 27 0b ae 64 22
       1.1960409e-14 -3.872292e-14 2.3073694e-15 3.09919e-18
0001c0 6f 01 56 28 cf 50 26 27 12 e4 56 28 12 1f a1 a7
       1.1879697e-14 2.3080934e-15 1.1928841e-14 -4.4720163e-15
0001d0 eb 81 5a 28 45 f2 54 28 9c 5e e3 a2 07 8b 5a 28
       1.21296024e-14 1.1820898e-14 -6.1628645e-18 1.2131578e-14
0001e0 44 83 7a a4 20 5f 71 28 ee 2f c3 25 bd b2 25 27
       -5.4321295e-17 1.3398814e-14 3.3859586e-16 2.2995244e-15
0001f0 87 40 57 28 c2 94 56 28 e2 20 08 a5 b5 58 5d a5
       1.194889e-14 1.1911643e-14 -1.1807261e-16 -1.919875e-16
000200 8d c7 33 b6 cf 0d 33 b6 92 22 19 b6 a2 1e 13 b6
       -2.6789232e-06 -2.6681116e-06 -2.28189e-06 -2.1922538e-06
000210 7c b7 2f 31 50 51 22 b5 b4 d8 dc b5 66 19 1c b6
       2.557015e-09 -6.046803e-07 -1.6454346e-06 -2.3260595e-06
000220 74 79 af b5 e7 f3 f0 b5 33 bb e4 b5 aa d7 1a b6
       -1.3073864e-06 -1.7952378e-06 -1.7041806e-06 -2.3073321e-06
000230 68 ab 1e b6 2b 5f 86 b6 0f da b7 b4 0d 6e f2 b5
       -2.3643606e-06 -4.00459e-06 -3.4245065e-07 -1.8062434e-06
000240 26 d0 c2 32 92 7d d8 b5 6a df 08 b6 1b bd e1 b5
       2.2679227e-08 -1.61298e-06 -2.0395623e-06 -1.6818843e-06
000250 60 75 1f b6 5e 58 99 b5 be a5 15 b2 4f 46 18 b6
       -2.3761168e-06 -1.1425107e-06 -8.710627e-09 -2.269069e-06
000260 06 a6 06 b5 c5 e6 06 b6 9e a9 1d b6 b5 d0 15 b6
       -5.0160486e-07 -2.0101882e-06 -2.3493553e-06 -2.2324214e-06
000270 ee 81 f8 b5 24 be da b5 05 b0 e0 b5 4a 8f ed b5
       -1.8515254e-06 -1.6297604e-06 -1.6740529e-06 -1.7699579e-06
000280 05 05 dd b5 6b 0c be b2 3b fc cf b5 39 29 17 b6
       -1.6467244e-06 -2.2124558e-08 -1.549611e-06 -2.2524748e-06
000290 e7 7e 65 b1 41 18 f1 b5 2e 67 ed b4 06 dc 1c b4
       -3.3396022e-09 -1.7962958e-06 -4.4219763e-07 -1.4608676e-07
0002a0 73 62 d9 b3 17 47 dc b5 00 3d dd b1 11 62 f7 b5
       -1.0122758e-07 -1.6411967e-06 -6.4388814e-09 -1.8431475e-06
0002b0 4b 48 e9 b5 f3 0b 85 b5 40 97 19 b6 4e e3 51 2e
       -1.7380893e-06 -9.91275e-07 -2.2886816e-06 4.7722985e-11
0002c0 4b c6 d7 b5 1a 16 19 b6 ee fc dd b5 eb b0 85 b4
       -1.6076459e-06 -2.2811641e-06 -1.6539395e-06 -2.4901905e-07
0002d0 15 e6 f6 b5 2b d4 ce b5 a5 6e 7c af 16 0f f9 b5
       -1.8395391e-06 -1.5409945e-06 -2.2958575e-10 -1.8556336e-06
0002e0 ab 2a 50 b5 9f f7 c3 b5 e5 3c 3d b5 3c 56 15 b6
       -7.754813e-07 -1.4600699e-06 -7.04966e-07 -2.2252925e-06
0002f0 6b 05 e1 b5 6d f1 da b5 52 1b 1d b3 43 35 56 b4
       -1.6765383e-06 -1.631253e-06 -3.657926e-08 -1.994968e-07
000300 0b 9e 18 ac 6a 69 18 ac fc 7c 81 ab ce 5e 77 ab
       -2.168823e-12 -2.1659016e-12 -9.200691e-13 -8.7883596e-13
000310 94 d6 1a 26 22 83 61 aa a6 20 98 ab ae e6 84 ab
       5.372029e-16 -2.002951e-13 -1.0809311e-12 -9.443191e-13
000320 d1 0d 90 ab 7a 2a ab ab d0 67 9b ab d8 a6 83 ab
       -1.023565e-12 -1.216207e-12 -1.1042226e-12 -9.354418e-13
000330 c3 0e 87 ab f4 bb 3a ac 30 21 0c aa 6b f4 a0 ab
       -9.596424e-13 -2.6536525e-12 -1.2446012e-13 -1.1436523e-12
000340 38 8b a2 aa fb 49 92 ab b5 fb 62 ab 86 cc 96 ab
       -2.8873583e-13 -1.0394458e-12 -8.0640643e-13 -1.0714908e-12
000350 4b d2 87 ab 93 ae 7b ab dd cb 5f 26 4f b6 80 ab
       -9.650695e-13 -8.9415384e-13 7.7644953e-16 -9.145548e-13
000360 c3 45 34 aa be 51 5b ab e2 5a 86 ab 08 47 7c ab
       -1.6011415e-13 -7.791787e-13 -9.546498e-13 -8.962696e-13
000370 23 7f a7 ab 05 78 93 ab 8b f5 96 ab a7 ef 9a ab
       -1.1901351e-12 -1.047829e-12 -1.0726293e-12 -1.1008875e-12
000380 bf ad a3 ab 78 95 18 a7 af 69 8f ab 03 ad 7d ab
       -1.1630071e-12 -2.1175265e-15 -1.0190094e-12 -9.012376e-13
000390 4b 83 15 a6 12 63 9e ab d3 a8 1d aa 9e 1a 6a a9
       -5.1872695e-16 -1.1254073e-12 -1.4002974e-13 -5.1981524e-14
0003a0 2a 1a ad a8 ee 00 a4 ab 11 7a 04 26 e6 18 a5 ab
       -1.9218205e-14 -1.1653159e-12 4.596213e-16 -1.1730866e-12
0003b0 7a 4b 9b ab 6f 55 c7 aa f9 c5 81 ab 75 27 bd 23
       -1.1034361e-12 -3.5408783e-13 -9.22095e-13 2.0508132e-17
0003c0 08 1f 92 ab 00 e8 80 ab 2c d2 93 ab 0e 07 c0 a9
       -1.0382537e-12 -9.15934e-13 -1.0503313e-12 -8.5277366e-14
0003d0 35 a3 a3 ab 23 7d 8c ab 60 33 a9 a3 86 a2 a6 ab
       -1.1627146e-12 -9.982331e-13 -1.8344775e-17 -1.1840119e-12
0003e0 b5 a7 94 aa bc 6d 78 ab 72 8c 8c aa 40 62 7a ab
       -2.640645e-13 -8.8259586e-13 -2.496645e-13 -8.895419e-13
0003f0 c7 60 98 ab da a4 92 ab cf d9 1f a5 8b 74 39 a9
       -1.0827111e-12 -1.0419679e-12 -1.3864848e-16 -4.1179337e-14

exp_avg_sq f4 [16, 64]
000000 a5 f9 13 2a fa 55 12 2a 38 5a a0 30 f8 a9 93 30
       1.3142836e-13 1.2997234e-13 1.1667174e-09 1.0743966e-09
000010 34 a1 dd 20 f7 1c 9e 25 8f eb 1d 23 2f d3 a6 30
       3.7545532e-19 2.7428258e-16 8.5608685e-18 1.2138112e-09
000020 fe 46 fd 22 f1 a1 1a 23 30 6f 20 23 43 f0 a4 30
       6.8650953e-18 8.382649e-18 8.697162e-18 1.2000857e-09
000030 ff b8 aa 30 d3 09 f6 22 67 e6 9f 21 28 43 21 23
       1.2421707e-09 6.6688835e-18 1.0835246e-18 8.742048e-18
000040 45 af 89 22 0c 9b 1d 23 6c 84 7d 30 0b b5 1f 23
       3.73195e-18 8.5438195e-18 9.2229047e-10 8.657745e-18
000050 93 43 ac 30 bc de 1c 23 81 da bc 22 ab 57 9e 30
       1.2533853e-09 8.503943e-18 5.1188852e-18 1.152093e-09
000060 cb 2b cb 25 7b 5a 8c 22 76 d7 a9 30 37 e0 98 30
       3.5244562e-16 3.8042876e-18 1.2357606e-09 1.1123181e-09
000070 5b 5c 1f 23 2e cc 1d 23 87 6a 1f 23 3d 2c 18 23
       8.638964e-18 8.554224e-18 8.641965e-18 8.249304e-18
000080 b8 8b 0f 23 65 b0 80 25 22 4b 1e 23 89 f5 9b 30
       7.781632e-18 2.232399e-16 8.581107e-18 1.134752e-09
000090 18 37 0c 23 1f 28 1b 23 79 04 c7 23 0b 6e a8 25
       7.601082e-18 8.411063e-18 2.1577517e-17 2.9217922e-16
0000a0 28 b2 40 26 74 74 0e 23 be 06 9b 22 fe d7 1d 23
       6.685483e-16 7.722495e-18 4.2019973e-18 8.556725e-18
0000b0 9c 03 1f 23 41 fa bf 24 8e b3 a1 30 8d 32 7c 1f
       8.6201716e-18 8.325699e-17 1.1765324e-09 5.340489e-20
0000c0 bd 44 1c 23 5c 46 a0 30 cf c8 1f 23 7f 79 3f 21
       8.471333e-18 1.166153e-09 8.66193e-18 6.4874116e-19
0000d0 61 a2 1d 23 79 f5 1d 23 0c ae 54 1f b6 8a 1e 23
       8.545372e-18 8.562968e-18 4.5036714e-20 8.59457e-18
0000e0 b9 88 aa 25 35 15 fe 22 8d 77 b8 25 26 ac 97 30
       2.9582946e-16 6.886929e-18 3.1999923e-16 1.1035624e-09
0000f0 26 fb 19 23 bc 01 1f 23 36 bf 34 26 55 b3 da 26
       8.347329e-18 8.6197745e-18 6.2709184e-16 1.5175397e-15
000100 c9 fd be 23 24 a5 be 23 3e 18 07 26 96 37 eb 25
       2.0707323e-17 2.0669781e-17 4.687039e-16 4.0803668e-16
000110 33 30 d6 21 19 ed 91 27 1f d1 78 28 f5 70 10 26
       1.4513962e-18 4.0502646e-15 1.3812111e-14 5.011312e-16
000120 bd 64 bc 28 e0 71 81 28 5e e6 7b 28 9c f3 0c 26
       2.0915881e-14 1.4371262e-14 1.3983252e-14 4.890241e-16
000130 8e 76 18 26 c6 b1 25 2b 83 a5 5c 22 2b 00 7e 28
       5.2896265e-16 5.8866486e-13 2.990318e-18 1.4099869e-14
000140 91 d9 34 28 cb 29 78 28 d9 43 bf 25 3a 34 7b 28
       1.0039184e-14 1.3775828e-14 3.3179194e-16 1.3944624e-14
000150 a7 3a 1b 26 26 e5 a5 26 d1 1b 9a 27 76 0c 04 26
       5.3855917e-16 1.1511286e-15 4.2773745e-15 4.581359e-16
000160 1c 60 e9 27 0f 61 c2 25 2b df 15 26 33 b3 f9 25
       6.4774693e-15 3.3719405e-16 5.199721e-16 4.3316045e-16
000170 3d 40 81 28 3f 1f 77 28 89 6c 7a 28 45 47 76 28
       1.4349736e-14 1.371803e-14 1.3901323e-14 1.3671197e-14
000180 ed 63 82 28 29 fc 85 27 a1 da 78 28 f2 e5 00 26
       1.4476235e-14 3.718831e-15 1.3814173e-14 4.4720555e-16
000190 df 85 46 1e a0 73 79 28 d1 00 ce 21 44 08 ab 20
       1.0509717e-20 1.3847349e-14 1.3959319e-18 2.8973997e-19
0001a0 ba 2c ad 25 f2 6b 84 28 bc df bd 1f 84 80 7e 28
       3.0041024e-16 1.4701758e-14 8.041475e-20 1.41277e-14
0001b0 73 95 79 28 67 51 85 27 f5 ac 08 26 20 1f a6 19
       1.3854683e-14 3.7003172e-15 4.741888e-16 1.7176569e-23
0001c0 ce 4f 7a 28 b1 cf 06 26 52 34 7c 28 d9 01 0c 25
       1.3895093e-14 4.6772063e-16 1.4000155e-14 1.214369e-16
0001d0 91 36 7e 28 4f 4d 78 28 d9 be 8b 1d 95 dc 7f 28
       1.4111665e-14 1.3783529e-14 3.6990325e-21 1.4203175e-14
0001e0 b1 7a ee 26 b1 13 a4 26 db 96 b0 27 90 c1 f6 25
       1.6547823e-15 1.1385123e-15 4.901337e-15 4.280536e-16
0001f0 5a 6a 7b 28 5f c4 7a 28 13 07 2c 27 3c a1 35 28
       1.395636e-14 1.3920369e-14 2.387363e-15 1.00824805e-14
000200 bb 89 93 30 a5 42 92 30 02 16 84 30 67 8f 75 30
       1.0734803e-09 1.064184e-09 9.610519e-10 8.933427e-10
000210 ac 54 ef 2a 00 da e5 2e 0f 8b 4f 30 cd b9 88 30
       4.2513681e-13 1.0452439e-10 7.5503775e-10 9.94811e-10
000220 6a 66 c4 2f eb 56 3d 30 92 bb 56 30 79 5b 86 30
       3.5724962e-10 6.888132e-10 7.81193e-10 9.775781e-10
000230 a8 a4 8d 30 d1 b9 4d 31 1b 69 4d 2e 76 32 5c 30
       1.0305898e-09 2.993705e-09 4.6704956e-11 8.0107243e-10
000240 ee e7 1e 2d c3 8f 4d 30 fb 29 56 30 d3 fb 54 30
       9.032759e-12 7.4782863e-10 7.7912404e-10 7.7483014e-10
000250 57 12 8f 30 85 77 0a 30 c0 f3 59 2b cc c9 82 30
       1.0409832e-09 5.0373955e-10 7.743216e-13 9.516099e-10
000260 d9 dc b3 2e 8c 18 52 30 b7 71 8b 30 c3 1f 7e 30
       8.179208e-11 7.643244e-10 1.0145901e-09 9.24498e-10
000270 ed 78 52 30 2e 74 50 30 5d 5a 54 30 04 8f 49 30
       7.65694e-10 7.583506e-10 7.7253565e-10 7.332661e-10
000280 b9 14 1e 30 56 fa 9f 2c 23 35 4d 30 c1 15 81 30
       5.7509514e-10 4.5468447e-12 7.465408e-10 9.392168e-10
000290 d8 8c 21 2c 39 0b 50 30 8f f3 ad 2e ac 3f b2 2d
       2.295766e-12 7.568591e-10 7.910394e-11 2.0264533e-11
0002a0 14 54 55 2d 36 fa 1a 30 e8 f1 d0 2a 47 7f 52 30
       1.2126317e-11 5.6380445e-10 3.7116078e-13 7.6578427e-10
0002b0 ad 1d 53 30 09 1d 92 2f c0 b3 84 30 f7 ee 00 2b
       7.6803525e-10 2.6577876e-10 9.655352e-10 4.5806365e-13
0002c0 bd 4e 52 30 9f fe 83 30 3c 94 56 30 b7 cc 15 2e
       7.650945e-10 9.603872e-10 7.80634e-10 3.40605e-11
0002d0 38 48 52 30 a2 78 4c 30 a6 38 0e 2b 1f 88 5d 30
       7.6500184e-10 7.4386197e-10 5.052715e-13 8.059277e-10
0002e0 e3 ce 33 2f cd fc f7 2f 37 5a 2c 2f 2e af 7c 30
       1.6353456e-10 4.5108664e-10 1.567536e-10 9.192601e-10
0002f0 ed b4 52 30 d6 2a 50 30 2b 41 fe 2b 27 79 9c 2d
       7.6654666e-10 7.573083e-10 1.8065873e-12 1.778895e-11
000300 29 07 4e 1b df 40 4d 1b 99 e2 19 1b 87 0e 0c 1b
       1.7042234e-22 1.6978164e-22 1.2729081e-22 1.1585223e-22
000310 c8 61 cd 14 41 c9 94 18 0e aa 4b 1c bb c1 27 1b
       2.0738278e-26 3.8460318e-24 6.7386856e-22 1.3876514e-22
000320 f4 a0 2c 1c 25 2d 61 1c 77 95 4e 1c a4 ea 21 1b
       5.7118053e-22 7.4504603e-22 6.835286e-22 1.3393424e-22
000330 dc f8 2d 1b 01 f5 79 1b 14 73 04 19 33 c7 4d 1c
       1.4390635e-22 2.0675962e-22 6.84748e-24 6.808627e-22
000340 3b 46 23 1b 49 6c 2f 1c 65 13 da 1a 29 e1 37 1c
       1.3505737e-22 5.80426e-22 9.019402e-23 6.0840634e-22
000350 a4 be 30 1b c3 85 0f 1a 2a 78 b1 15 46 f4 18 1b
       1.4619978e-22 2.967976e-23 7.1679316e-26 1.2652074e-22
000360 cf a9 8d 18 5d 76 be 1a e9 be 2b 1b 89 26 11 1b
       3.661911e-24 7.8773384e-23 1.4206475e-22 1.200657e-22
000370 ce 0f 51 1c 56 e4 31 1c 0a 31 3b 1c c5 80 29 1c
       6.9172726e-22 5.8859505e-22 6.193649e-22 5.608384e-22
000380 1c f3 56 1c e2 3d ef 17 79 80 2c 1c fb b9 0b 1b
       7.112087e-22 1.5460634e-24 5.7076073e-22 1.1557904e-22
000390 9b 3c 13 17 f8 1e 37 1c 29 d1 6c 18 cf 90 90 18
       4.7574757e-25 6.0589647e-22 3.0607884e-24 3.7369347e-24
0003a0 11 75 65 17 69 44 50 1c a5 17 6b 15 fe bf 47 1c
       7.414165e-25 6.8909845e-22 4.7476524e-26 6.609172e-22
0003b0 6b 44 41 1c 0e 4a 4a 19 d1 e0 17 1b 5a a8 30 15
       6.394677e-22 1.04581105e-23 1.2563069e-22 3.5675723e-26
0003c0 8b b7 2f 1c 4f 1e 12 1b 22 53 2d 1c 54 8f 69 18
       5.8139867e-22 1.208663e-22 5.7348345e-22 3.0186906e-24
0003d0 e6 aa 40 1c a2 4f 1d 1c f4 f4 86 15 7c 54 5b 1c
       6.374835e-22 5.2049865e-22 5.4508637e-26 7.2570215e-22
0003e0 5f 18 09 19 52 f1 07 1a ef 99 f3 18 af 8f 09 1b
       7.087656e-24 2.8112283e-23 6.296946e-24 1.1378801e-22
0003f0 c5 1b 45 1c a6 c4 2c 1c e4 27 8b 16 5b 80 72 17
       6.5217724e-22 5.716419e-22 2.2481836e-25 7.8356425e-25

exp_avg f4 [16]
000000 57 67 aa 29 e3 dc a4 25 d6 9e a7 37 5b 6d a6 2c
       7.567443e-14 2.8599144e-16 1.9981915e-05 4.7301447e-12
000010 d4 b1 0a b8 34 bb e9 a8 c1 f8 b7 2c f2 a3 b6 2c
       -3.306738e-05 -2.5949383e-14 5.22879e-12 5.1909527e-12
000020 38 97 e6 b5 fe 9d 8a b5 10 d8 6d 2c a8 1c e2 2c
       -1.7180346e-06 -1.0327783e-06 3.3799664e-12 6.426488e-12
000030 b0 81 a4 2b fb a0 18 2d 88 c0 5a 2f ab 5c 82 aa
       1.1688896e-12 8.6759445e-12 1.9895385e-10 -2.315694e-13

exp_avg_sq f4 [16]
000000 e4 f4 3f 1e 6a 30 e6 25 0a 73 83 33 63 3c 55 1c
       1.0162098e-20 3.9931447e-16 6.121088e-08 7.0553836e-22
000010 d3 08 4b 34 ec 63 57 1c 5d 5c 58 1d e3 0a 39 22
       1.8909058e-07 7.126668e-22 2.8635113e-21 2.5077939e-18
000020 e9 00 56 30 36 9f 5c 2f 0a d3 d3 1d cc e8 61 1d
       7.785404e-10 2.0065447e-10 5.6069444e-21 2.9898855e-21
000030 f1 8f 54 1b 9b fb ea 1c dd 80 8e 24 61 cd ec 18
       1.7582739e-22 1.554986e-21 6.1800986e-17 6.121195e-24
