model_ckpts/S4D_0.005_8_64_1000_ckpt_879965_20250408.pth (torch, 31866 bytes, 33 tensors)

embedding.weight f4 [2, 8]
0	0xbf9ba41c	-1.2159457
1	0xbf2c2917	-0.672502
2	0xbf0258c9	-0.50916725
3	0x3fc8b250	1.5679417
4	0xbef0c5d2	-0.47025925
5	0x3f0c3162	0.5476285
6	0xbf9ce025	-1.2255903
7	0x3fbdd0a4	1.4829297
8	0x00000000	0.0
9	0x00000000	0.0
10	0x00000000	0.0
11	0x00000000	0.0
12	0x00000000	0.0
13	0x00000000	0.0
14	0x00000000	0.0
15	0x00000000	0.0

s4d_layers.0.D f4 [8]
0	0xbf3e2461	-0.7427426
1	0xbdbc4dbc	-0.09194514
2	0xbec78596	-0.38969105
3	0xbd116aa1	-0.03550208
4	0x3f1be833	0.6090118
5	0x3fcc987c	1.5984035
6	0xbe83b357	-0.25722763
7	0x3e40cc26	0.18827876

s4d_layers.0.kernel.C f4 [8, 32, 2]
0	0xbee6009c	-0.4492234
1	0xb071ceb3	-8.7969027e-10
2	0xbd2bd6f8	-0.041953057
3	0x3d8155fa	0.06315227
4	0x3f1f8b19	0.6232162
5	0xbcac52a0	-0.021035492
6	0x3e80af66	0.25133818
7	0x3d8533ad	0.06503997
8	0x3f91cb99	1.1390258
9	0x3e1f0e1f	0.1553273
10	0x3f9bebe1	1.218136
11	0xbe01436f	-0.1262338
12	0x3fa3b859	1.2790633
13	0xbe893585	-0.26798645
14	0x3f9fe1f0	1.2490826
15	0xbee1c5b4	-0.44096148
16	0x3f5d47c4	0.8643763
17	0xbf28b469	-0.65900284
18	0x3ee363d9	0.44412115
19	0xbf3afd5e	-0.7304286
20	0x3e9f044b	0.31057963
21	0xbf676e03	-0.9040224
22	0xbe0e22bb	-0.13880436
23	0xbf8b0b5a	-1.0862839
24	0xbf2a5777	-0.6653971
25	0xbf9422b9	-1.1573097
26	0xbfd83bb2	-1.6893218
27	0xbf16c08a	-0.5888754
28	0xc0067e19	-2.1014464
29	0xbed912ac	-0.42397058
30	0xbfd7f6ba	-1.687217
31	0x3e7c3ed7	0.24633346
32	0xbfbc48ea	-1.4709752
33	0x3f293185	0.66091186
34	0xbfaed1f1	-1.3657819
35	0x3f3012a7	0.6877846
36	0xbf3a1a24	-0.7269614
37	0x3f101c87	0.5629353
38	0xbfe5c482	-1.7950594
39	0x3eeacead	0.45860806
40	0xbf3c0898	-0.73450613
41	0xbf0463a8	-0.51714563
42	0xbf64eaac	-0.8942058
43	0xbf45a16d	-0.7719944
44	0xbfab5807	-1.3386239
45	0xbdf4baf0	-0.11949718
46	0xbfb12901	-1.3840638
47	0x3f1c721d	0.61111623
48	0xbf9e7422	-1.2379191
49	0x3f8d1669	1.1022464
50	0xbf7e9d4e	-0.9945878
51	0x3f893720	1.0719948
52	0xbf3b4be6	-0.73162687
53	0x3fb542cc	1.416101
54	0xbefec9da	-0.49763376
55	0x3fb1f3e5	1.3902556
56	0xbdd29639	-0.10282559
57	0x3fa8bd2f	1.3182734
58	0x3f1f2896	0.62171304
59	0x3f90e0d2	1.131861
60	0x3fa273ad	1.2691551
61	0x3f64cd82	0.8937608
62	0x400e0284	2.2189035
63	0xbee8a30a	-0.4543689
64	0x3c6b01f7	0.01434373
65	0x829b541f	-2.2823486e-37
66	0xbe64f2a2	-0.22358182
67	0x3dbf0767	0.09327584
68	0xbf1d7f0a	-0.6152197
69	0x3dee700e	0.116424665
70	0xbf09cd09	-0.53828484
71	0x3eb0029a	0.34376985
72	0x3f0ba754	0.545522
73	0x3ea6d770	0.3258624
74	0xba777c30	-0.00094408076
75	0xb9e66ee0	-0.00043951627
76	0xbeb64725	-0.35601154
77	0x3d03ab71	0.03214592
78	0x3db5676c	0.08857617
79	0x3ebbe5f3	0.36698875
80	0x3e81041d	0.2519845
81	0x3e888e37	0.26671
82	0xba8f28ee	-0.0010922232
83	0xbd9d2051	-0.076721795
84	0xbf2bf373	-0.6716835
85	0x3edb0cbc	0.42783153
86	0x3c9b40f1	0.018951865
87	0x3f0e0675	0.554786
88	0xbd2f5d54	-0.042813614
89	0x3f11b5a7	0.56917804
90	0x3db94160	0.090456724
91	0x3f07df90	0.53075504
92	0x3eae6834	0.34063876
93	0x3f0f770b	0.5604102
94	0x3ec2a295	0.38014665
95	0x3f0947ca	0.53625166
96	0x3ede4c2a	0.43417484
97	0x3f0a5015	0.54028445
98	0x3f86fda6	1.0546157
99	0x3f038497	0.5137419
100	0x3f913cf9	1.1346732
101	0xbe2f6c48	-0.1713115
102	0x3f147a76	0.5799936
103	0xbeede86a	-0.4646638
104	0x3e9454dc	0.28970993
105	0xbe9741f7	-0.29542515
106	0x3f1cf377	0.61309
107	0xbf51a170	-0.8188696
108	0x3f35b8fd	0.70985395
109	0xbf436a8a	-0.7633444
110	0xbefb2935	-0.49054876
111	0xbfb69a0e	-1.4265764
112	0xbf1af5f1	-0.60531527
113	0xbf6fede4	-0.9372237
114	0xbe9b9817	-0.30389473
115	0xbf154eb6	-0.5832323
116	0xbf49df2d	-0.78856164
117	0xbfd8885d	-1.6916615
118	0xbfbca71c	-1.4738498
119	0xbf7724af	-0.9654035
120	0xbf8131cd	-1.0093323
121	0xbec10c1e	-0.37704557
122	0xbf8059cd	-1.0027405
123	0xbedec52f	-0.43509814
124	0xbfa1ac73	-1.2630752
125	0xbe95822d	-0.2920088
126	0xbf50937e	-0.81475055
127	0x3eb7084d	0.3574852
128	0xbe6b305e	-0.2296767
129	0x152f9ccb	3.5464656e-26
130	0xbe91cd87	-0.28477117
131	0x3c15772c	0.009122651
132	0xbea63813	-0.32464656
133	0x9d2519fc	-2.1851002e-21
134	0xbebb083c	-0.3652972
135	0x3e4c9ad4	0.19980937
136	0xbeb7d87d	-0.35907355
137	0x3e706ac3	0.23478226
138	0xbed1cbce	-0.40975803
139	0x3e05f070	0.13080001
140	0xbf0d77e3	-0.5526106
141	0x3cfed334	0.031106569
142	0xbf1b6cdd	-0.6071299
143	0x3cd2fe08	0.025755897
144	0xbf11dc7b	-0.5697705
145	0x3d680068	0.056641012
146	0xbf19984a	-0.59998
147	0x3d5531e2	0.052049525
148	0xbf2b424b	-0.6689803
149	0xbbcb8bd3	-0.0062117367
150	0xbf4b5fa9	-0.7944284
151	0xbdf9837d	-0.121832825
152	0xbf65bbf9	-0.8973995
153	0xbe5608a5	-0.20901735
154	0xbf88f4d7	-1.0699719
155	0xbe58d834	-0.21176225
156	0xbf9edd10	-1.2411213
157	0xbddd18ae	-0.10795723
158	0xbfbc824f	-1.4727267
159	0x3d667349	0.05626229
160	0xbfcdc58b	-1.607591
161	0x3e5a2ce8	0.21306193
162	0xbfda26c2	-1.7043078
163	0x3ec52bd3	0.38509998
164	0xbfda58d7	-1.7058362
165	0x3f081a72	0.5316535
166	0xbfd641de	-1.6738851
167	0x3f25aef4	0.6472008
168	0xbfd06453	-1.6280617
169	0x3f427b53	0.7596943
170	0xbfc43b10	-1.5330524
171	0x3f53141b	0.82452554
172	0xbfbba0df	-1.4658469
173	0x3f579fc6	0.8422817
174	0xbfc1ff14	-1.5155969
175	0x3f556574	0.8335793
176	0xbfcfb34a	-1.622659
177	0x3f5d7f3a	0.8652226
178	0xbfdc2b77	-1.7200764
179	0x3f6e2e3b	0.9303929
180	0xbfdbfb99	-1.7186157
181	0x3f897355	1.0738322
182	0xbfcc2247	-1.5947961
183	0x3f9b7bfe	1.2147214
184	0xbfae68dc	-1.362575
185	0x3fb0dc49	1.3817226
186	0xbf74383c	-0.95398307
187	0x3fc84d13	1.5648521
188	0xbf4bb7c0	-0.79577255
189	0x3fcf96ec	1.6217933
190	0xbe678ab8	-0.22611511
191	0x3fe7baf9	1.8103935
192	0x3d3c34be	0.045948736
193	0x239fa82c	1.7310038e-17
194	0xbf48ce75	-0.7844003
195	0xbdaceef0	-0.08444011
196	0xbf31d860	-0.6947079
197	0x3ebf2a8c	0.37337148
198	0xbf4840fc	-0.7822416
199	0xbe45fbb7	-0.19334303
200	0xbef83804	-0.48480237
201	0x3e2fd45a	0.1717085
202	0x3f25de1a	0.64792025
203	0xbe242c24	-0.16032463
204	0xbef49997	-0.4777343
205	0xbde81f7c	-0.1133413
206	0xbfab968d	-1.340532
207	0xbdcd9d9b	-0.100398265
208	0x3f7baea5	0.9831336
209	0x3e0524c1	0.13002302
210	0xbf1391c6	-0.5764431
211	0x3e963129	0.2933438
212	0x3e53a52e	0.2066848
213	0x3f089b20	0.533617
214	0x3f09d0c3	0.5383417
215	0xbe8696eb	-0.26287016
216	0x3daf31bc	0.08554408
217	0x3e3c0057	0.18359505
218	0xbd273748	-0.040824205
219	0x3ec96f08	0.39342523
220	0x3efca9ac	0.493482
221	0x3e7fdec8	0.24987328
222	0x3f055329	0.5208002
223	0xbed37f22	-0.41307932
224	0x3f5a12c3	0.8518488
225	0x3f1fb83e	0.62390506
226	0x3eb0f8c6	0.345648
227	0xbf23a5e0	-0.6392498
228	0x3e75729d	0.23969503
229	0xbe6ae74c	-0.22939795
230	0x3f19b837	0.60046715
231	0x3ed4a28f	0.41530272
232	0x3f6f1884	0.9339678
233	0xbe9b4a1e	-0.30329984
234	0xbed387ac	-0.41314447
235	0x3d47b760	0.048758864
236	0xbf030c4d	-0.51190645
237	0xbdb0061f	-0.085949175
238	0x3f00f13d	0.503681
239	0xbea7f501	-0.3280411
240	0x3d3bd7f6	0.045860253
241	0xbf665929	-0.899798
242	0xbea16e00	-0.31529236
243	0xbf0c01d2	-0.5469028
244	0x3fad1c90	1.3524342
245	0xbe45fb78	-0.19334209
246	0xbf9def33	-1.2338623
247	0x3f8ec816	1.1154811
248	0xbe646f27	-0.22308026
249	0xbff34f56	-1.9008586
250	0x3fb438c0	1.4079819
251	0x3f82dfe3	1.0224575
252	0xbfb95d0b	-1.448152
253	0x3f9a749d	1.2066838
254	0xbf7542b4	-0.95804906
255	0xbf476f8f	-0.779046

s4d_layers.0.kernel.log_dt f4 [8]
0	0xc0ade69b	-5.4344
1	0xc0c1d873	-6.057672
2	0xc0dd3f9e	-6.914016
3	0xc0b32304	-5.5980244
4	0xc0d9ced0	-6.8064957
5	0xc0e7a53e	-7.238921
6	0xc07cf1dc	-3.952262
7	0xc059a81b	-3.4008853

s4d_layers.0.kernel.log_A_real f4 [8, 32]
0	0x40d776d7	6.733257
1	0x40b9b93d	5.803862
2	0xbfad2611	-1.3527242
3	0x3fee3893	1.8611015
4	0xc03110c3	-2.766648
5	0xc044fbcc	-3.0778685
6	0x3eb89989	0.36054638
7	0xc02380cc	-2.5547361
8	0xbfb383ff	-1.4024657
9	0x3ea4b68a	0.32170516
10	0xbffda8bd	-1.981712
11	0xbfc5e25e	-1.5459707
12	0xc00e4d56	-2.2234702
13	0xc0312498	-2.7678585
14	0xbf73fcd6	-0.9530767
15	0xc07eb630	-3.9798698
16	0xc03df704	-2.9682016
17	0xbdad7cbc	-0.08471057
18	0xbfa06352	-1.253031
19	0x3ffa7eed	1.9569985
20	0xbe104864	-0.14090115
21	0xc0a06912	-5.012826
22	0xc078dc13	-3.8884323
23	0xbfb70516	-1.4298427
24	0xbe6c4dbd	-0.2307653
25	0xbf306216	-0.6889967
26	0xbfa6df17	-1.3036832
27	0xbfbd454e	-1.4786775
28	0xc007d164	-2.1221552
29	0xc023196e	-2.548427
30	0xc06ae533	-3.6702392
31	0xc0a05265	-5.010058
32	0x4122da56	10.178305
33	0x4015e25a	2.3419404
34	0xc0276e5d	-2.616111
35	0xc00bce25	-2.184457
36	0xc0133b5b	-2.3004978
37	0x417a9d49	15.6634
38	0xc0a7d8f8	-5.2452354
39	0xc09be30f	-4.871467
40	0xc0999edc	-4.800642
41	0x413d9d88	11.85096
42	0xc0e4c466	-7.1489744
43	0xc0ae2b0b	-5.4427543
44	0xc0a7e6ee	-5.2469397
45	0xbfef0881	-1.867447
46	0xc0b4e601	-5.6530766
47	0xc0965cea	-4.698842
48	0xc00ee052	-2.2324414
49	0xc029486e	-2.6450458
50	0xc095f38a	-4.685979
51	0xc0a626c3	-5.1922317
52	0xc0be1294	-5.939768
53	0x3f853580	1.0406952
54	0xbf1315c1	-0.5745507
55	0xc10871e1	-8.527802
56	0xc10c84ed	-8.782453
57	0xc0d00e6c	-6.5017605
58	0xc0496982	-3.1470647
59	0xc0dad92f	-6.8390117
60	0xc0c5fb42	-6.186921
61	0xc022d6e3	-2.5443656
62	0xc0f44d5a	-7.6344423
63	0xc131d768	-11.115089
64	0x4091841c	4.5473766
65	0x4091da57	4.557903
66	0x40bb7dac	5.859091
67	0x40b334f2	5.600213
68	0x40b53de2	5.663804
69	0x409b640e	4.8559637
70	0x3fe2bf57	1.7714642
71	0x3f9d55ec	1.2291846
72	0x3e3adfbb	0.18249409
73	0xbea6bad3	-0.3256441
74	0xbf3d7148	-0.7400098
75	0xbf30d72f	-0.69078344
76	0xbf981c7a	-1.188369
77	0xbfa96b15	-1.3235804
78	0xc0164055	-2.3476765
79	0xc03b2339	-2.9240248
80	0xc0329058	-2.79006
81	0xc02087b1	-2.508282
82	0xc00910df	-2.1416547
83	0xbfdecb0d	-1.7405716
84	0xbfaec053	-1.3652443
85	0xbf63ba57	-0.8895621
86	0xbfc11d98	-1.5087156
87	0xbfc43f38	-1.5331793
88	0xc014747a	-2.3196092
89	0xc02885c4	-2.6331644
90	0xc04b34ac	-3.1750898
91	0xc02d8c3d	-2.7116845
92	0xc0234783	-2.5512397
93	0xc023d952	-2.5601392
94	0xbfdf2d2d	-1.7435662
95	0xc06ffb83	-3.749726
96	0x3ff0c1da	1.8809159
97	0xbfe46f5b	-1.7846483
98	0xc0a096b8	-5.0183983
99	0xc0aba687	-5.364078
100	0xc0c66927	-6.200336
101	0xc05a1bba	-3.4079423
102	0xbf264fdc	-0.64965606
103	0xbffd0a26	-1.9768722
104	0xc06eae0f	-3.7293737
105	0xbf87c8e3	-1.0608181
106	0xbef3f52a	-0.47647983
107	0xc00934d7	-2.14385
108	0x400965b1	2.1468318
109	0xbf25d611	-0.64779764
110	0x3d08ce72	0.033400007
111	0xbfd880e7	-1.6914338
112	0xc031ea05	-2.7799084
113	0x3d9e9057	0.077423744
114	0x3ffe0640	1.9845657
115	0xc07d35a1	-3.9563982
116	0xc0b82778	-5.754818
117	0xc0017c30	-2.0232048
118	0xc0809fbd	-4.0194993
119	0xc0110572	-2.2659574
120	0xc10f380f	-8.951186
121	0xc14238b6	-12.138845
122	0xc16c8db6	-14.784597
123	0xc18bcf60	-17.476257
124	0xc1952aae	-18.64584
125	0xc18e65fc	-17.799797
126	0xc17c01ee	-15.750471
127	0xc136e0c5	-11.429875
128	0x40b82c9a	5.7554445
129	0x40ad2680	5.4109497
130	0x40b58671	5.6726613
131	0xbfe0529b	-1.7525209
132	0xbfe64372	-1.7989333
133	0xc050396f	-3.2535055
134	0xbe0cd83b	-0.1375436
135	0xc02c541c	-2.6926336
136	0xc059d2ee	-3.4034991
137	0xc08146eb	-4.039907
138	0xc09058ee	-4.5108557
139	0xbfac5900	-1.3464661
140	0xc0b2158a	-5.5651293
141	0xc06e0bda	-3.7194734
142	0xc0488f18	-3.1337337
143	0xc0994e09	-4.790776
144	0xc0629f6c	-3.5409803
145	0xc0e61b47	-7.1908298
146	0xc0fb1b06	-7.8470488
147	0x3ed5e28c	0.41774404
148	0xc0d68720	-6.7039948
149	0xc116dd01	-9.428956
150	0xc0e53a78	-7.1633873
151	0xc0c1584a	-6.0420275
152	0xc0bcf737	-5.9051776
153	0xc0c679d8	-6.2023735
154	0xc05d8b03	-3.4616096
155	0xc0216c07	-2.5222185
156	0xc0856f52	-4.169839
157	0xc0988880	-4.7666626
158	0xc0b33175	-5.599787
159	0xc06cd8cf	-3.700733
160	0xbe87bb04	-0.2650987
161	0x40bdf781	5.936463
162	0xbf326489	-0.69684654
163	0xc01778f0	-2.3667564
164	0x40846c2c	4.1382046
165	0x3f9d2bb2	1.227896
166	0xc024c01f	-2.5742261
167	0xbfe98e22	-1.82465
168	0xbf3b79a0	-0.7323246
169	0xc02d648d	-2.7092621
170	0xc0065776	-2.0990882
171	0xc009c5cb	-2.1526973
172	0xc086f055	-4.2168374
173	0xc09e7826	-4.9521666
174	0xc0d00dc3	-6.50168
175	0xc09e864c	-4.9538937
176	0xc072fa18	-3.7965145
177	0xc0b402a9	-5.6253247
178	0xc03e559b	-2.973975
179	0xc09e4a65	-4.9465814
180	0xc0d55847	-6.667026
181	0xc0ceca1a	-6.4621706
182	0xc0903d2e	-4.507468
183	0xc08a4c4f	-4.321815
184	0xc021d162	-2.5284047
185	0xc0aa2fdc	-5.318342
186	0xc0941648	-4.62772
187	0xc0ce2c4f	-6.442909
188	0xc0e4e65c	-7.15312
189	0xc0c46530	-6.137352
190	0xc0945b5e	-4.636153
191	0xc0aab06c	-5.334036
192	0xbe80d0ed	-0.25159398
193	0x3e06322f	0.13105081
194	0xbf3e58b4	-0.743541
195	0xbf439a95	-0.7640775
196	0xbfdcc453	-1.7247413
197	0xbfc70ce7	-1.5550812
198	0xc0812f91	-4.0370564
199	0xbf7802ac	-0.96879077
200	0xc0e8ddc7	-7.2770724
201	0xc128f26d	-10.559186
202	0xc1234cb4	-10.206226
203	0xc05ceae1	-3.4518359
204	0xbf44f5d9	-0.76937634
205	0xbfc5c33d	-1.5450207
206	0xbf76a160	-0.9633999
207	0xbf65668a	-0.8960959
208	0xc0aa853a	-5.328763
209	0xbe9a8f32	-0.30187374
210	0xbfc48ba3	-1.5355114
211	0xc0347ffd	-2.8203118
212	0xc0415938	-3.0210705
213	0xc03d3430	-2.9563103
214	0xc112313c	-9.13702
215	0xc045b3f5	-3.0891087
216	0xc0d3f169	-6.623219
217	0xc097b001	-4.740235
218	0xbf850cd2	-1.0394537
219	0xbfd33425	-1.6500288
220	0xbefd656e	-0.49491447
221	0xbf91d0c0	-1.139183
222	0xc0031ad1	-2.0485117
223	0xc0685221	-3.6300128
224	0x41934bba	18.411976
225	0x40d8f235	6.7795663
226	0xbec21a5c	-0.37910736
227	0xbd808222	-0.06274821
228	0x3b85341a	0.004065049
229	0x3edd9748	0.4327948
230	0xc053243a	-3.299086
231	0xbebc9a06	-0.3683626
232	0xbf559a16	-0.8343824
233	0xbe06023f	-0.13086794
234	0xbf8b36bb	-1.0876077
235	0xbfaa6421	-1.3311807
236	0xc091461e	-4.539809
237	0xbe5a5690	-0.21322083
238	0x3fc65c4a	1.5496914
239	0xc00d76d2	-2.2103772
240	0xbf858ce5	-1.0433623
241	0xbe0c5d3d	-0.13707443
242	0xbfdfaa75	-1.7473894
243	0xbeef79a5	-0.46772495
244	0xbe1c91e0	-0.15290022
245	0xc04335cc	-3.0501585
246	0xbf825af1	-1.0184003
247	0xbf946ffb	-1.1596674
248	0xbf11a1e6	-0.5688766
249	0xbf6db2cc	-0.9285095
250	0xbf34685a	-0.7047173
251	0xbfae15d5	-1.3600413
252	0xbf99b89a	-1.2009461
253	0xbf8413bf	-1.0318526
254	0xbf5abd79	-0.8544536
255	0xbfbb6f0b	-1.4643263

s4d_layers.0.kernel.A_imag f4 [8, 32]
0	0xb0748731	-8.89588e-10
1	0x40f8e5c0	7.7780457
2	0x40ce0ef6	6.4393263
3	0x413fefdd	11.99606
4	0x4162826b	14.15684
5	0x41723933	15.138965
6	0x419eed5b	19.865896
7	0x41b31477	22.384993
8	0x41c01c07	24.013685
9	0x41e38c3d	28.443476
10	0x41fee247	31.860487
11	0x4208e779	34.226048
12	0x4211d6a7	36.45962
13	0x42222804	40.539078
14	0x422a9882	42.648933
15	0x4238e129	46.219883
16	0x4241b5ed	48.42766
17	0x424907ba	50.257545
18	0x42605dc0	56.091553
19	0x4261932c	56.393723
20	0x4285a903	66.8301
21	0x4285f5ea	66.9803
22	0x42899b10	68.80286
23	0x428f2e21	71.590096
24	0x4297b384	75.85062
25	0x429ccb46	78.39702
26	0x42a3e619	81.94941
27	0x42a6df02	83.43556
28	0x42b1949e	88.79027
29	0x42b5fe57	90.99676
30	0x42ba9264	93.28592
31	0x42c6f7ce	99.48399
32	0x83bd57a6	-1.1128545e-36
33	0x40cbab65	6.364672
34	0x40cb69c7	6.3566623
35	0x4101c2eb	8.110087
36	0x41572065	13.445409
37	0x418af306	17.368664
38	0x419856b0	19.042328
39	0x41b8ebea	23.115192
40	0x41c288c6	24.316784
41	0x41e94a36	29.161236
42	0x4201a315	32.40926
43	0x420ecb0c	35.698288
44	0x420d87f5	35.38277
45	0x42306523	44.098766
46	0x4238f0b2	46.235054
47	0x423b2ce5	46.793842
48	0x4244cd88	49.200714
49	0x4251cf70	52.452576
50	0x4266613c	57.594955
51	0x4272d4ce	60.707817
52	0x427b26e5	62.787983
53	0x4287a1d3	67.81606
54	0x42866e7b	67.21578
55	0x42912bf7	72.58587
56	0x4293f6ee	73.982285
57	0x4297466e	75.63756
58	0x42a51d4b	82.55721
59	0x42aacfaa	85.405594
60	0x42affbe1	87.99195
61	0x42b01a84	88.05179
62	0x42bcce3b	94.402794
63	0x42bfebcc	95.96054
64	0x952f75fc	-3.5434042e-26
65	0x3eb2d7af	0.3493018
66	0x9c146e6b	-4.9111804e-22
67	0x40365220	2.8487625
68	0x4126308f	10.386855
69	0x413bd2a0	11.738922
70	0x41b85813	23.043005
71	0x41ccd1fb	25.60253
72	0x41dacefb	27.351065
73	0x41ef96b1	29.94858
74	0x4201da9c	32.463486
75	0x420ff493	35.988842
76	0x4218e241	38.22095
77	0x422805d2	42.005684
78	0x42334cb7	44.824917
79	0x42402f0e	48.04595
80	0x424975eb	50.365154
81	0x42546e80	53.10791
82	0x426070f7	56.110317
83	0x426b2eb5	58.795612
84	0x42788337	62.12814
85	0x4282e7c2	65.45265
86	0x42899359	68.78779
87	0x42912a53	72.582664
88	0x42971a41	75.55128
89	0x429bc789	77.88972
90	0x42a170a6	80.72002
91	0x42a6c00e	83.37511
92	0x42ac08aa	86.01692
93	0x42b2f158	89.471375
94	0x42b5b311	90.84974
95	0x42bf779c	95.73361
96	0xa392a0d1	-1.589746e-17
97	0x408acf47	4.3378024
98	0x40d541c6	6.664279
99	0x4149f58a	12.622446
100	0x41621058	14.12899
101	0x418a360e	17.276394
102	0x41a31bd6	20.388592
103	0x41a73077	20.898664
104	0x41c90c77	25.131086
105	0x41f3286e	30.394741
106	0x4201cffc	32.45311
107	0x42098511	34.379948
108	0x421513a5	37.269184
109	0x42208edb	40.139507
110	0x422c3d99	43.060154
111	0x4232172a	44.52262
112	0x42495021	50.32825
113	0x4255340a	53.30082
114	0x4263d7aa	56.96061
115	0x426c2b1f	59.04211
116	0x42718f58	60.389984
117	0x42811ee4	64.56033
118	0x42806661	64.19996
119	0x4289760a	68.730545
120	0x428c1ac9	70.052315
121	0x428f7154	71.721344
122	0x4299c08a	76.87605
123	0x42a45b51	82.17835
124	0x42ae937b	87.28805
125	0x42b8d0ec	92.40805
126	0x42c449dd	98.144264
127	0x42cf3ae7	103.61504
128	0x0c84e7a1	2.0477227e-31
129	0x3fec4616	1.8458889
130	0x40ba3c60	5.81987
131	0x413aa277	11.664664
132	0x41676a8b	14.463511
133	0x417f22ab	15.945964
134	0x418d173c	17.636345
135	0x41afdfbb	21.984243
136	0x41d2ac4b	26.334127
137	0x41daf2f5	27.368631
138	0x41f713f7	30.884748
139	0x42084504	34.067398
140	0x4219e965	38.477924
141	0x4223f579	40.98972
142	0x422bcbca	42.949013
143	0x4235fd85	45.497578
144	0x423c7c3d	47.121326
145	0x424e9105	51.64162
146	0x42587e35	54.12325
147	0x426b85ec	58.880783
148	0x428241bb	65.12838
149	0x4287cddf	67.90209
150	0x428b4e64	69.65311
151	0x428c4963	70.14333
152	0x4290f371	72.47547
153	0x42981a67	76.05157
154	0x42a87ce2	84.24391
155	0x42ae05ed	87.01157
156	0x42b30b74	89.52237
157	0x42b7c887	91.891655
158	0x42bad0ff	93.408195
159	0x42bd85ed	94.76157
160	0x3dd691a6	0.10476999
161	0xb41f51a8	-1.4837735e-07
162	0x40ebedcc	7.372778
163	0x41290ea6	10.566076
164	0x4146c4b4	12.423023
165	0x41a86882	21.05103
166	0x419dfc23	19.748114
167	0x41a8669b	21.0501
168	0x41d4b130	26.586517
169	0x41e1d4bf	28.22888
170	0x41e45a74	28.544167
171	0x420f55b6	35.833702
172	0x421842db	38.06529
173	0x422182e0	40.377808
174	0x422f0e5e	43.76403
175	0x4235c843	45.445568
176	0x4241bded	48.435474
177	0x4256d9d4	53.712723
178	0x4255cb13	53.448315
179	0x42799088	62.391144
180	0x4280a179	64.31538
181	0x4281c208	64.87897
182	0x428a6f2b	69.217125
183	0x428be17a	69.940384
184	0x42948078	74.250916
185	0x42a00192	80.00307
186	0x42a87674	84.23135
187	0x42a872c7	84.224174
188	0x42ae8a2a	87.26985
189	0x42b65b58	91.178406
190	0x42b89599	92.29218
191	0x42bde985	94.95609
192	0xb4093f52	-1.2782155e-07
193	0x40487c03	3.132569
194	0x40e08f9c	7.0175304
195	0x4110ff00	9.062256
196	0x414cc14b	12.797191
197	0x416a8845	14.658269
198	0x4190e59c	18.112114
199	0x41a3919a	20.446095
200	0x41d0af08	26.085464
201	0x41e27fca	28.312397
202	0x41f7d85d	30.980646
203	0x42096d66	34.356834
204	0x421ba762	38.91346
205	0x4226f0c7	41.735134
206	0x42314240	44.314697
207	0x423a8507	46.62991
208	0x424b22be	50.783928
209	0x4251d8fe	52.461906
210	0x42607a55	56.119465
211	0x42675758	57.835297
212	0x427c1999	63.024998
213	0x42825f41	65.18604
214	0x4289f06d	68.96958
215	0x42948216	74.254074
216	0x4298ed66	76.46367
217	0x429e47cb	79.14022
218	0x42a2768c	81.23154
219	0x42aadca2	85.43092
220	0x42aa0211	85.004036
221	0x42b4e550	90.447876
222	0x42bbad9d	93.83909
223	0x42c49851	98.29749
224	0xbc71cdcd	-0.014758539
225	0x4078ac28	3.8855076
226	0x41002b59	8.010583
227	0x4122b37d	10.16882
228	0x4141562d	12.083539
229	0x4157fca3	13.499179
230	0x41901863	18.011908
231	0x41a42fa5	20.523264
232	0x41c7b81a	24.964893
233	0x41e3be61	28.467958
234	0x41fbee05	31.49122
235	0x4201a124	32.407364
236	0x42112a87	36.29153
237	0x42205f87	40.09329
238	0x4248a96b	50.165447
239	0x42356026	45.343895
240	0x42495844	50.336197
241	0x424f9a52	51.900703
242	0x426198d8	56.39926
243	0x426ce89a	59.22715
244	0x4280c17e	64.377914
245	0x428774e8	67.72833
246	0x428ae023	69.43777
247	0x428c4648	70.13727
248	0x42922189	73.0655
249	0x429c3b97	78.11639
250	0x42a2e3b7	81.444756
251	0x42ab1cbd	85.55613
252	0x42b261de	89.19115
253	0x42b98a31	92.769905
254	0x42baf339	93.475044
255	0x42c27a84	97.23929

s4d_layers.0.output_linear.0.weight f4 [16, 8, 1]
0	0x3f8e6063	1.1123165
1	0xbf30e308	-0.6909642
2	0x3e918d9b	0.2842835
3	0x3fbee94f	1.491495
4	0x3f30128e	0.6877831
5	0xbdb24b6d	-0.087057926
6	0x3f770f02	0.96507275
7	0xbf39b120	-0.72535896
8	0x3f16e257	0.5893912
9	0x3eef8702	0.4678269
10	0xbe527cad	-0.20555373
11	0xbedbad3f	-0.42905614
12	0xbe48875e	-0.19582888
13	0x3f1f429f	0.6221103
14	0x3f11127f	0.5666885
15	0x3f20db29	0.6283441
16	0x3f6541d9	0.895536
17	0xbf2cf12e	-0.6755551
18	0x3e3b942f	0.18318246
19	0x3fa6a8b1	1.302023
20	0x3f66badd	0.9012888
21	0xbe85c168	-0.2612412
22	0x3f5f5872	0.8724433
23	0x3d8b8099	0.068116374
24	0x3e64a529	0.22328629
25	0xbebd0b7b	-0.3692282
26	0xbf9e0a79	-1.2346946
27	0x3fdcb176	1.7241657
28	0x3f9259d4	1.1433663
29	0xbf4f2f57	-0.8093161
30	0x3ed17cb8	0.40915465
31	0x3fc45d12	1.5340903
32	0xbe6eda40	-0.23325443
33	0x3f17e256	0.59329736
34	0x3ed79ffa	0.4211424
35	0xbf482d7f	-0.7819442
36	0xbf32da9f	-0.6986484
37	0x3d5ad1ec	0.053422853
38	0xbfcfd5bd	-1.6237103
39	0xbf9cda66	-1.225415
40	0x3ed0c26c	0.40773332
41	0x3e39c488	0.18141377
42	0xbe3f708e	-0.1869528
43	0x3fe147f1	1.760008
44	0x3fdae374	1.7100663
45	0x3e5e4d2d	0.21709128
46	0xbe3d4bff	-0.18486021
47	0xbf1de65d	-0.6167963
48	0x3f1c0546	0.60945547
49	0x3dc716bd	0.09721134
50	0x3e4676be	0.19381234
51	0x3fdf7a74	1.7459245
52	0x3f06d4aa	0.5266825
53	0x3f62154e	0.8831376
54	0x3f7e47a7	0.9932808
55	0x3e27e3ad	0.16395445
56	0x3cb05059	0.021522688
57	0xbdbd80b7	-0.09253066
58	0xbfa1bba4	-1.2635388
59	0x3ff1031f	1.8829077
60	0x3fe66e6f	1.8002452
61	0xbee8ab72	-0.45443302
62	0xbe90061f	-0.2812967
63	0x3f9bfe8c	1.2187057
64	0xbe5b2a2c	-0.21402806
65	0x3ef0b43c	0.47012508
66	0xbeb685ac	-0.3564886
67	0x3f7988e6	0.97474515
68	0xbf109baf	-0.56487554
69	0x3fde3b47	1.736184
70	0x3ea288c3	0.31744966
71	0xbfb9cd01	-1.4515687
72	0xbe0fc1df	-0.140388
73	0x3e642d5f	0.22282933
74	0x3eb83499	0.3597763
75	0x3f7cdebc	0.98777366
76	0xbd642b86	-0.05570557
77	0x3f1c6557	0.6109213
78	0xbeafb163	-0.34315023
79	0xbf39feb9	-0.726543
80	0xbe5fa486	-0.21840104
81	0x3f4ddd38	0.8041568
82	0xbed64818	-0.41851878
83	0x3f56c4cc	0.8389404
84	0xbf309101	-0.6897126
85	0x3fb17bdd	1.3865925
86	0x3f2fc570	0.6866064
87	0x3e88c8b6	0.2671563
88	0x4014269f	2.3148572
89	0x3e2a9491	0.16658236
90	0xbf235a85	-0.63809997
91	0x3f0d911b	0.5529954
92	0xbda11056	-0.07864444
93	0x3e1c749c	0.15278858
94	0x3fa1cfec	1.2641578
95	0xc094f5f2	-4.6550226
96	0x403c3e2d	2.941295
97	0x3f369c7e	0.7133254
98	0xbf51d6b9	-0.81968266
99	0xbe92b329	-0.28652313
100	0xbea97301	-0.33095554
101	0xbf2d0b16	-0.6759504
102	0x3fdd72fe	1.7300718
103	0x3ffe6b96	1.9876583
104	0xc0222874	-2.533719
105	0x3f0175fa	0.5057064
106	0xbfcb4ee9	-1.5883456
107	0x4017375a	2.3627534
108	0x4035fda1	2.8436053
109	0xbcb8425b	-0.022492578
110	0x3cfbcdde	0.030737814
111	0xbf9997e9	-1.1999484
112	0x3f511f63	0.8168852
113	0xbf032746	-0.512318
114	0xbf5c47fe	-0.8604735
115	0x4023c26e	2.558742
116	0x3fb43df5	1.4081408
117	0xbd84a56e	-0.06476866
118	0x401c7989	2.444918
119	0x3e0e775c	0.1391272
120	0x3ffcc419	1.9747344
121	0x3f480708	0.7813573
122	0xbf4dbed8	-0.8036933
123	0x3fc84a52	1.5647681
124	0x3eece1a8	0.46265912
125	0x3e032a38	0.12809074
126	0x3f83cbcf	1.0296572
127	0xc0ab417a	-5.3517427

s4d_layers.0.output_linear.0.bias f4 [16]
0	0x3e499ea6	0.19689426
1	0xbba353f3	-0.0049843728
2	0x3e5f6f51	0.21819808
3	0xbd959ee8	-0.073056996
4	0x3eb56d2c	0.35434854
5	0xbdc860ba	-0.09784074
6	0x3e354e7a	0.17705718
7	0x3e88b4fc	0.2670058
8	0x3d7f584b	0.062340062
9	0xbe99bed4	-0.30028403
10	0xbe765d34	-0.24058992
11	0xbfd2cb5c	-1.646831
12	0xbf1b8c88	-0.6076131
13	0xbe484b8e	-0.19560072
14	0x3e3405db	0.17580359
15	0xbf937f96	-1.1523311

norms.0.weight f4 [8]
0	0x3b1fff2c	0.002441357
1	0x3fa4dbd3	1.2879585
2	0xbc5c66f1	-0.0134522775
3	0x3bc041b1	0.005867206
4	0x403a0f83	2.9071968
5	0xbd3993ad	-0.04530685
6	0xbbd9c4e1	-0.0066457842
7	0xbbb3514a	-0.005472337

norms.0.bias f4 [8]
0	0x3b59ced7	0.0033234858
1	0xbe5c42f1	-0.21509911
2	0xbbe6124f	-0.0070212255
3	0xbc171146	-0.009220427
4	0xbe9c0852	-0.30475098
5	0x3c689ad0	0.014197066
6	0xbb4b77ab	-0.003104667
7	0x3c2a6dc8	0.01040215

cl_head.weight f4 [1, 8]
0	0xb8ce2b88	-9.830954e-05
1	0x3f3fd851	0.7493945
2	0xbae0b2db	-0.0017143147
3	0x39960956	0.00028617185
4	0x3feb7d2c	1.8397574
5	0x3bc632f6	0.0060485555
6	0xb833340d	-4.27254e-05
7	0xba737f03	-0.00092886406

exp_avg f4 [2, 8]
0	0x3eb47061	0.35241988
1	0x3fa4b30f	1.2867144
2	0x3faddf3b	1.358375
3	0xbe4c0159	-0.19922389
4	0xbf8e722a	-1.112859
5	0x3eedbb2f	0.46431872
6	0x3ef87dbc	0.48533428
7	0x3f8ba713	1.0910362
8	0x00000000	0.0
9	0x00000000	0.0
10	0x00000000	0.0
11	0x00000000	0.0
12	0x00000000	0.0
13	0x00000000	0.0
14	0x00000000	0.0
15	0x00000000	0.0

exp_avg_sq f4 [2, 8]
0	0x422532dc	41.299667
1	0x42bac611	93.38685
2	0x41ff3a6e	31.90353
3	0x41fb7167	31.430372
4	0x4421d02c	647.2527
5	0x41bbeafd	23.48974
6	0x41cf9a4f	25.950346
7	0x41f6be06	30.842785
8	0x00000000	0.0
9	0x00000000	0.0
10	0x00000000	0.0
11	0x00000000	0.0
12	0x00000000	0.0
13	0x00000000	0.0
14	0x00000000	0.0
15	0x00000000	0.0

exp_avg f4 [8]
0	0x3f1bc5e3	0.60848826
1	0x3f75d3e3	0.9602644
2	0x3f1443e7	0.5791611
3	0x3f000b88	0.50017595
4	0xbdfac931	-0.122454055
5	0x3c23eae0	0.010004729
6	0x3e8e3e2c	0.27781808
7	0x4097eedd	4.747908

exp_avg_sq f4 [8]
0	0x419c0def	19.506804
1	0x424e9a0e	51.650444
2	0x402e7334	2.7257814
3	0x4133171a	11.19314
4	0x400fa6fb	2.2445667
5	0x3ee13d17	0.4399192
6	0x419cb280	19.587158
7	0x4314110a	148.06656

exp_avg f4 [8, 32, 2]
0	0x3ab8d01e	0.001410011
1	0x26d17600	1.4534272e-15
2	0x3b68aa9a	0.0035502077
3	0xb8a8568c	-8.026985e-05
4	0x3d3b0b68	0.045665175
5	0xbe4ab0dd	-0.1979403
6	0x3d829a03	0.06377032
7	0xbd8c058d	-0.06836996
8	0x3d9c91bf	0.07644986
9	0xbe25813e	-0.16162583
10	0x3cf5a321	0.029985012
11	0xbe211c34	-0.15733415
12	0x3c94569e	0.018107709
13	0xbdc34618	-0.09534854
14	0xbd321dc3	-0.043485414
15	0xbdf3c693	-0.119031094
16	0xbd7be2f6	-0.061495744
17	0xbd4dd415	-0.050251085
18	0x3c7c3576	0.015393605
19	0xbd8f3e2b	-0.069942795
20	0xbdf70583	-0.12061598
21	0xbd8a8cad	-0.06765113
22	0xbd5d5ad6	-0.054041706
23	0x3da45ea6	0.08025865
24	0x3dc6a983	0.097003005
25	0x3d3ee25f	0.046602603
26	0xbc9e1544	-0.01929725
27	0xbdfd7382	-0.12375547
28	0xbd84f0d4	-0.06491247
29	0xbd22a204	-0.03970529
30	0x3c61b846	0.013776844
31	0x3c98b5c5	0.018641362
32	0x3cb9051c	0.022585444
33	0xbce1764f	-0.027522234
34	0xbaea7745	-0.0017888328
35	0xbcce18d7	-0.025158329
36	0x3d348aa1	0.04407752
37	0xbcbe1522	-0.023203436
38	0x3ba7ed71	0.005124741
39	0xbca6e38f	-0.02037218
40	0x3c8bd53c	0.017069452
41	0xbcd58308	-0.026063457
42	0x3cc06d22	0.023489539
43	0xbd2cd490	-0.042194903
44	0xbc97d2ab	-0.018533072
45	0xbcfad65e	-0.030619796
46	0x3c6c49e8	0.0144219175
47	0x3c774be0	0.015093774
48	0x3c689bd9	0.014197313
49	0xbd57df3c	-0.052703127
50	0xbcc26191	-0.023728164
51	0xbd17e4ad	-0.037083317
52	0xbb960c3d	-0.0045790956
53	0xbc931ffe	-0.017959591
54	0xbc26622f	-0.010155245
55	0xbcd7d49a	-0.026346494
56	0x3c308825	0.010774647
57	0x3c6b11c8	0.014347501
58	0x3cf63faf	0.030059664
59	0xbcbddcc9	-0.023176568
60	0xbc085f6b	-0.008323531
61	0xbd5bd886	-0.05367329
62	0xba831d75	-0.0010003286
63	0x3d08f868	0.033440024
64	0x3899e4ed	7.338249e-05
65	0x00000003	4e-45
66	0x3db76416	0.08954637
67	0xbcc31274	-0.02381251
68	0x3e19f82b	0.15036075
69	0xbd8c1d4b	-0.06841525
70	0x3e0330df	0.12811612
71	0xbdb13fcd	-0.08654747
72	0x3d8f3cfe	0.06994055
73	0xbd7bb409	-0.06145099
74	0x34a273a0	3.025898e-07
75	0xab6912d5	-8.2804363e-13
76	0x3df741a7	0.12073069
77	0xbd9fff52	-0.0781237
78	0x3d860f30	0.065458655
79	0xbe1d9d73	-0.15392093
80	0x3cfa22ba	0.030534137
81	0xbe20493f	-0.15652941
82	0x3765c363	1.3694956e-05
83	0xb143b296	-2.847775e-09
84	0x3c9f9d78	0.019484267
85	0xbba84c7b	-0.0051360703
86	0x3d967444	0.07346395
87	0xbd523f80	-0.05133009
88	0x3d930162	0.07177998
89	0xbd353924	-0.044243947
90	0xbd2a8dd1	-0.041639153
91	0xbd90a6e8	-0.07063085
92	0xbd0f3ed3	-0.034972023
93	0xbd1ee4e0	-0.03879249
94	0xbcef5cb9	-0.029219018
95	0xbd0acf8a	-0.03388933
96	0xbb9d567f	-0.004801571
97	0xbd0abae8	-0.033869654
98	0xbbbdd308	-0.005792979
99	0xbd76d9e4	-0.06026639
100	0xbd81ba27	-0.06334334
101	0xbd184c9e	-0.037182443
102	0xbd6ee1cb	-0.0583208
103	0x3c39e196	0.011345288
104	0xbd11998a	-0.035546817
105	0x3d0261e2	0.03183163
106	0x3c013c16	0.007887861
107	0x3c45ceb5	0.012073209
108	0x3c1f41b6	0.009720257
109	0x3cd66fc0	0.026176333
110	0x3d05877c	0.03259991
111	0x3bbf2b85	0.0058340454
112	0x3d0deecc	0.034651563
113	0xba1c1d09	-0.00059552543
114	0x3d0f4744	0.034980074
115	0xbc0c71b0	-0.008572027
116	0x3c81fe5a	0.015868355
117	0xbc94b599	-0.018152999
118	0x3c8c9224	0.017159529
119	0xbc322bd2	-0.010874705
120	0x3cc76960	0.024342239
121	0xbc2906b3	-0.010316539
122	0x3cc7d1d9	0.024392055
123	0xbc2da7c5	-0.010599081
124	0x3cca0948	0.024662629
125	0xbca1c23b	-0.019745937
126	0x3ccf3779	0.025295006
127	0xbc8d176b	-0.01722308
128	0x3c2c0160	0.010498375
129	0x8e04053e	-1.627278e-30
130	0x3c2a7443	0.0104036955
131	0xb80bc284	-3.332134e-05
132	0x3b4b8a24	0.003105768
133	0x1490d1a8	1.4622979e-26
134	0x3b8228a5	0.0039721304
135	0xb821ef22	-3.86081e-05
136	0x3b74d561	0.003735863
137	0xb9032a15	-0.0001250881
138	0x3c01734a	0.007901022
139	0xba29497e	-0.00064577896
140	0x3c29e96f	0.010370596
141	0xbd1e5d82	-0.038663395
142	0x399a4235	0.00029422497
143	0xbd1104ba	-0.0354049
144	0xbbfd1815	-0.007723818
145	0xbcf5acb5	-0.02998958
146	0xbbd75d29	-0.006572385
147	0xbcaa082d	-0.020755852
148	0xbb0b6f1b	-0.002127594
149	0xbc6d227c	-0.014473554
150	0x3bbbf277	0.005735691
151	0xbc3ebf49	-0.011642286
152	0x3c21e03f	0.009880125
153	0xbc481263	-0.012211415
154	0x3c5afc47	0.013365812
155	0xbc88748d	-0.016657138
156	0x3c52bd8f	0.012862577
157	0xbca7f102	-0.020500664
158	0x3c180cfb	0.009280439
159	0xbcbf6a3d	-0.023366088
160	0x3bbcaa2e	0.0057575917
161	0xbcc18992	-0.023625169
162	0x3aea1c02	0.001786113
163	0xbcb3215f	-0.021866499
164	0xba8cb0fa	-0.0010733895
165	0xbc92f608	-0.017939582
166	0xbacf7edd	-0.0015830655
167	0xbc5f728a	-0.013638148
168	0x3a098117	0.0005245371
169	0xbc11e067	-0.008903599
170	0x3b9c67d2	0.0047731185
171	0xbbd42fbc	-0.006475417
172	0x3c1ca46d	0.009560687
173	0xbbd74fa9	-0.0065707755
174	0x3c5d59fc	0.0135102235
175	0xbc2aa077	-0.010414234
176	0x3c6ae928	0.014337815
177	0xbc73f070	-0.014888868
178	0x3c563358	0.013073765
179	0xbc9738b8	-0.018459663
180	0x3c1daa28	0.009623088
181	0xbcb2420e	-0.021760013
182	0x3ba8054e	0.0051275855
183	0xbcbc3e2a	-0.02297886
184	0x39f055da	0.00045840332
185	0xbcb53b77	-0.022123082
186	0xbb8faae4	-0.0043843854
187	0xbc9498b2	-0.018139217
188	0xbbb07d92	-0.005386063
189	0xbc819744	-0.0158192
190	0xbbaa6683	-0.0052002086
191	0xbbea7653	-0.0071552186
192	0xbe4f559e	-0.20247504
193	0xa1b084c2	-1.1961365e-18
194	0x3dfa4f11	0.12222112
195	0x3f1ae7a4	0.60509706
196	0x3e3cfbc9	0.18455423
197	0x3c805559	0.015665697
198	0x3dc96805	0.09834293
199	0x3eb48751	0.35259488
200	0x3e5529d0	0.20816731
201	0x3e17c232	0.14820173
202	0xbdd84e1f	-0.105617754
203	0x3ca27bbe	0.019834395
204	0x3d2c77d5	0.04210647
205	0x3e7ce358	0.246961
206	0x3dda453e	0.10657738
207	0x3e8d40f0	0.27588606
208	0x3c2fe136	0.010734847
209	0xbda895cd	-0.08231697
210	0x3e1c200b	0.15246598
211	0x3e54596f	0.20737241
212	0x3e2e80db	0.17041342
213	0x3d4ded2d	0.050275017
214	0x3d7186dd	0.058966506
215	0xbc9e4e9c	-0.019324593
216	0x3d944a8c	0.07240781
217	0x3d0d1535	0.034444053
218	0x3e836a83	0.256672
219	0x3d271eca	0.040800847
220	0x3e067ea7	0.13134252
221	0xbdd8f5e3	-0.10593774
222	0x3d008a01	0.03138161
223	0xbe07d94a	-0.13266483
224	0x3dc1c4a3	0.094613336
225	0xbc89be1d	-0.016814286
226	0x3d9b7085	0.07589821
227	0xbd6c54a3	-0.057697903
228	0x3cf15bd9	0.029462742
229	0xbce974f0	-0.028498143
230	0xbdaccf74	-0.08438006
231	0xbdacd003	-0.084381126
232	0xbdc6375e	-0.09678529
233	0x3afb185e	0.0019157042
234	0x3ddf6035	0.10907022
235	0xbc2b92e7	-0.010472036
236	0x3de13566	0.10996513
237	0x3c88569a	0.016642857
238	0xbdec9cc1	-0.11553336
239	0xbdaaa382	-0.08331968
240	0xbe19fc2e	-0.15037605
241	0x3ccb85dd	0.024844104
242	0xbd880cf2	-0.06643094
243	0x3e0f87b6	0.14016613
244	0x3dd0de31	0.1019863
245	0xbcd22733	-0.025653457
246	0x3d5a3991	0.053277556
247	0xbd5419fd	-0.051782597
248	0xbd28975c	-0.041159973
249	0xbb2b8f3e	-0.0026177908
250	0x3c9077db	0.017635277
251	0x3ca593e2	0.020212118
252	0x3de109a8	0.1098817
253	0x3c7e2865	0.0155125605
254	0x3d9c1b62	0.0762241
255	0xbc8a47ae	-0.016879883

exp_avg_sq f4 [8, 32, 2]
0	0x38f0d5bc	0.00011483903
1	0x27ec071d	6.551087e-15
2	0x3ab4958a	0.0013777476
3	0x36a28b69	4.8442057e-06
4	0x3f0aa14a	0.5415236
5	0x3fa58a0b	1.2932752
6	0x3e27c9e2	0.16385606
7	0x3e7800e6	0.24219093
8	0x3e2eba00	0.17063141
9	0x3ef70bc7	0.48251173
10	0x3e25d94a	0.1619617
11	0x3ec53f0c	0.38524663
12	0x3d249a98	0.040186495
13	0x3ea5bd16	0.32370824
14	0x3d98e3a6	0.074652955
15	0x3e98cdf1	0.2984462
16	0x3dbca929	0.09211952
17	0x3e6f9322	0.2339597
18	0x3dc5c1e0	0.09656119
19	0x3e6c3b7a	0.23069564
20	0x3e9ca135	0.3059174
21	0x3ec2caa4	0.38045228
22	0x3e83d337	0.25747082
23	0x3efeeced	0.49790135
24	0x3eb8e75c	0.36114013
25	0x3ecc0d0e	0.3985371
26	0x3e1f6996	0.15567622
27	0x3e8a4173	0.2700306
28	0x3dbb94ee	0.091592655
29	0x3e0e6673	0.13906269
30	0x3de97748	0.11399704
31	0x3d90267a	0.07038589
32	0x3dd2cd62	0.1029308
33	0x3db0e203	0.08636858
34	0x3d8029e8	0.06257993
35	0x3d9be8a5	0.07612733
36	0x3d9fe422	0.07807185
37	0x3dcb65ec	0.099315494
38	0x3bcb58d0	0.0062056556
39	0x3cfe0d9c	0.031012349
40	0x3d6bc686	0.057562374
41	0x3d37814a	0.044801034
42	0x3ddd0c08	0.107933104
43	0x3d92ede9	0.07174284
44	0x3dca8a5d	0.09889672
45	0x3d6bf3ee	0.057605676
46	0x3d4cec0b	0.050029796
47	0x3d6b0227	0.0573751
48	0x3cc83e36	0.024443727
49	0x3cfda67f	0.03096318
50	0x3d1148e8	0.03546992
51	0x3d0942b2	0.03351087
52	0x3d338c1e	0.043834798
53	0x3d1dd91d	0.038537133
54	0x3d34e31f	0.044161912
55	0x3d292361	0.041293506
56	0x3d72167d	0.059103478
57	0x3db2e0d3	0.08734288
58	0x3d50dab9	0.05098984
59	0x3dea83b3	0.11450901
60	0x3d43ef28	0.0478355
61	0x3dceea1e	0.10103248
62	0x3d05709a	0.03257809
63	0x3d1ccc34	0.03828068
64	0x354591a4	7.3600154e-07
65	0x2162881f	7.6751933e-19
66	0x3f6db95a	0.9286095
67	0x3e6b0676	0.22951683
68	0x3ff8572e	1.9401605
69	0x40eaade0	7.333725
70	0x3f8f220f	1.1182269
71	0x409f0edb	4.9705634
72	0x3e9f3718	0.3109672
73	0x3f73bb59	0.95207745
74	0x2d067888	7.6437814e-12
75	0x1af40e47	1.009391e-22
76	0x3e783181	0.24237634
77	0x3f69533f	0.9114265
78	0x3e6455c9	0.2229835
79	0x3f0eb956	0.5575155
80	0x3e34b908	0.17648709
81	0x3ee957fa	0.45574933
82	0x328a44b8	1.6096564e-08
83	0x26b8ae05	1.2814733e-15
84	0x3db0ab10	0.086263776
85	0x3eebbb78	0.46041465
86	0x3e088b6a	0.13334432
87	0x3eaf6d1f	0.3426294
88	0x3e03a580	0.12856102
89	0x3eb896de	0.36052603
90	0x3dd4b94e	0.103869066
91	0x3ea7214d	0.32642594
92	0x3de06688	0.10957056
93	0x3ec7fb0e	0.39058727
94	0x3df0cecc	0.117581934
95	0x3ec5ff85	0.38671508
96	0x3e22fa97	0.15915905
97	0x3e9fea3d	0.31233397
98	0x3dfbbba4	0.12291649
99	0x3ea788d3	0.32721576
100	0x3e357715	0.17721207
101	0x3f1c03d2	0.6094333
102	0x3e9ddf82	0.30834585
103	0x3f3717f8	0.7152095
104	0x3efaf1b0	0.49012518
105	0x3f10ac32	0.5651275
106	0x3e1ca96e	0.15299007
107	0x3de9a309	0.114080496
108	0x3eb9f023	0.36316022
109	0x3e76844b	0.24073903
110	0x3e3d522a	0.18488374
111	0x3e107750	0.14108014
112	0x3e17eed6	0.14837202
113	0x3df8a712	0.12141241
114	0x3dfe7ad7	0.124257736
115	0x3dd0101d	0.10159323
116	0x3d720787	0.05908921
117	0x3d858f42	0.06521465
118	0x3d81eb90	0.06343758
119	0x3d3536da	0.044241764
120	0x3d69a713	0.0570441
121	0x3d3e1e5f	0.046415683
122	0x3d62b13e	0.055344813
123	0x3d38c066	0.04510536
124	0x3d75dc53	0.06002457
125	0x3d5961f0	0.053071916
126	0x3d764199	0.060121153
127	0x3d78591b	0.060631853
128	0x3aa2f437	0.0012432401
129	0x2c20c21e	2.2845124e-12
130	0x3a9c12ae	0.0011907422
131	0x3312b27f	3.4155615e-08
132	0x38b6d0f1	8.717355e-05
133	0x2954ae6d	4.7224746e-14
134	0x39189c2b	0.00014554027
135	0x328f6f33	1.6697959e-08
136	0x39063d90	0.0001280217
137	0x34369d80	1.7007369e-07
138	0x3a28e20a	0.0006442374
139	0x36b0aff0	5.2656906e-06
140	0x3b6984e5	0.003563219
141	0x3c8b893a	0.017033208
142	0x3b5d726a	0.003379012
143	0x3c71b2ba	0.014752084
144	0x3b9e9890	0.004839964
145	0x3c4464a7	0.011986888
146	0x3b8197eb	0.0039548776
147	0x3bf68f3e	0.0075244
148	0x3b4af9f8	0.0030971747
149	0x3ba82ab8	0.0051320456
150	0x3b404a16	0.0029341034
151	0x3b765112	0.0037584943
152	0x3b5c0181	0.0033570232
153	0x3b78c68d	0.0037960142
154	0x3b6bbfb0	0.003597241
155	0x3ba75410	0.0051064566
156	0x3b61f8b4	0.0034480514
157	0x3bd4e9b6	0.006497587
158	0x3b4b0c23	0.0030982576
159	0x3bf17a2b	0.0073693
160	0x3b3e22f8	0.0029012542
161	0x3beee8c2	0.0072909305
162	0x3b2d05a7	0.0026401074
163	0x3bda1bb5	0.006656135
164	0x3b0e0b38	0.0021674167
165	0x3bbb21b4	0.005710805
166	0x3ad7cbef	0.0016463975
167	0x3b9f7e20	0.00486733
168	0x3aa00ef8	0.0012211492
169	0x3b7e47e3	0.0038800172
170	0x3a9d1ee0	0.0011987351
171	0x3b468111	0.0030289332
172	0x3aba70a4	0.0014224243
173	0x3b2dcd63	0.0026520125
174	0x3ab2732e	0.0013614648
175	0x3b444592	0.0029948694
176	0x3a9a5075	0.0011773246
177	0x3b6ca3ec	0.0036108447
178	0x3a8df082	0.0010829123
179	0x3b82473f	0.0039757784
180	0x3a9895a0	0.0011641271
181	0x3b856435	0.0040707835
182	0x3aaf6db1	0.0013384131
183	0x3b7add12	0.003827874
184	0x3aba92de	0.0014234444
185	0x3b656aac	0.0035006208
186	0x3aa09bda	0.0012253479
187	0x3b527690	0.0032114126
188	0x3a899499	0.0010496556
189	0x3b4ca51f	0.003122635
190	0x3a2fcbc7	0.00067060854
191	0x3b3f08aa	0.0029149451
192	0x4224642a	41.097816
193	0x36fc1557	7.5126695e-06
194	0x3f59b058	0.85034704
195	0x43982bba	304.3416
196	0x420c1010	35.015686
197	0x4195ad82	18.70972
198	0x3f016d4d	0.50557405
199	0x42308fd3	44.140453
200	0x41116c76	9.08898
201	0x417a3d49	15.639962
202	0x3fe1018b	1.7578596
203	0x3eb59753	0.35467014
204	0x3e9e4fdf	0.30920312
205	0x41770341	15.438294
206	0x3e94a7a7	0.2903416
207	0x41a37b64	20.43525
208	0x3ea6c8f5	0.32575193
209	0x3f1503b4	0.58208776
210	0x403acdc1	2.9188082
211	0x4128430d	10.51637
212	0x402ddb52	2.7165112
213	0x3feb785b	1.8396105
214	0x4047259d	3.1116707
215	0x4013cbd8	2.3093166
216	0x3f296b2a	0.66179144
217	0x4006107a	2.0947556
218	0x41aeae2a	21.835041
219	0x414408aa	12.252115
220	0x411872a5	9.527989
221	0x4059256a	3.3929086
222	0x40b8a74c	5.770422
223	0x40c590e2	6.173936
224	0x4082bc63	4.0854964
225	0x400a3242	2.1593175
226	0x3f687818	0.9080825
227	0x3f4798d5	0.7796758
228	0x3ea724e7	0.32645342
229	0x3e2af9da	0.16696873
230	0x3fb685f2	1.4259627
231	0x3f9d6536	1.2296512
232	0x3f913acb	1.1346067
233	0x3fc906cd	1.57052
234	0x4045c46a	3.0901132
235	0x3fb01bea	1.3758519
236	0x40413d4d	3.0193665
237	0x3fe0a652	1.7550757
238	0x3fac610c	1.3467116
239	0x4007b80f	2.120609
240	0x4001c7ef	2.027828
241	0x3ffd9f84	1.9814305
242	0x4002f8ad	2.046428
243	0x4042831f	3.039253
244	0x3fe7b0fd	1.8100888
245	0x402cd920	2.7007523
246	0x4043c96b	3.0591686
247	0x3fe990a5	1.8247267
248	0x3f937e11	1.1522847
249	0x3fb56aa9	1.4173175
250	0x3fa15da8	1.2606707
251	0x3f9ddf60	1.2333794
252	0x3f8e251f	1.1105078
253	0x3f7f9d46	0.99849355
254	0x3f843970	1.0330029
255	0x3f861405	1.047486

exp_avg f4 [16, 8, 1]
0	0x3ebfd38c	0.37466085
1	0x3ad3d86b	0.001616252
2	0x3ca60306	0.020265114
3	0xbd3bc61e	-0.045843236
4	0x3c8ee737	0.017444236
5	0xbea09ed7	-0.31371185
6	0xbd33303c	-0.04374717
7	0x3c85f721	0.016353192
8	0xbd86af96	-0.06576459
9	0xbc957a89	-0.018246906
10	0xbcd9077c	-0.026492827
11	0xbbb54c64	-0.005532788
12	0x3bef0c2c	0.007295152
13	0xbc946357	-0.018113775
14	0x3c4ce420	0.012505561
15	0x3bd6967a	0.0065487
16	0x3ec933af	0.39297244
17	0x3c05565a	0.008138264
18	0x3d40f965	0.04711284
19	0xbd8e44f4	-0.069467455
20	0x3bca001b	0.0061645634
21	0xbe6a7724	-0.22897011
22	0xbcf714d0	-0.030161291
23	0x3d27b0bd	0.040940035
24	0x3e698396	0.22804102
25	0x3d7717bf	0.06032538
26	0x3dbc42d5	0.09192435
27	0xbd849d57	-0.06475323
28	0xbcdbdca1	-0.026838602
29	0x3dc33052	0.09530701
30	0xbc95a32a	-0.01826628
31	0x3d3a18ef	0.045433935
32	0xc017409c	-2.3633184
33	0xbf57fc52	-0.84369385
34	0xbf973182	-1.1811984
35	0x3f017d6b	0.50582
36	0x3ec48134	0.38379824
37	0xbfc3d7a4	-1.5300183
38	0x3ef04360	0.46926403
39	0xbf0e9603	-0.5569765
40	0x3d0194ac	0.031635925
41	0xbc8ef0aa	-0.017448742
42	0xbcb9b9fa	-0.022671688
43	0xbca0259a	-0.01954918
44	0x3c5e4b53	0.013567763
45	0xbdf8a105	-0.12140087
46	0x3c106785	0.0088137435
47	0xbc24950c	-0.010045301
48	0x3e186931	0.14883877
49	0x3d146ee9	0.036238585
50	0x3d09f5dc	0.033681735
51	0xbce37061	-0.027763547
52	0xbc358d55	-0.011081059
53	0xbcedb8d5	-0.029018799
54	0xbd52f7ee	-0.051505975
55	0x3c8354f4	0.01603172
56	0x3e75b712	0.23995617
57	0x3d8f7b17	0.070058994
58	0x3dc8d887	0.09806924
59	0xbd927db4	-0.07152882
60	0xbcf2a3b5	-0.029619077
61	0x3dd12bf2	0.1021346
62	0xbcb21582	-0.021738771
63	0x3d228779	0.039679978
64	0x3c1e7493	0.009671348
65	0x3cc04165	0.023468683
66	0x3cedee5b	0.02904432
67	0xbc6e32d4	-0.014538486
68	0xbc2327f0	-0.009958252
69	0x3d91b9c5	0.07115511
70	0xbc33cab3	-0.01097362
71	0x3c114d21	0.008868487
72	0xbd33fde4	-0.0439433
73	0xbc7f432e	-0.015579982
74	0xbc79d745	-0.015249078
75	0x3b85f259	0.004087728
76	0x3b8618f3	0.0040923296
77	0xbc641beb	-0.013922672
78	0x3b71d6a6	0.0036901622
79	0xbbb0b9da	-0.005393249
80	0x3bd3fabe	0.0064691
81	0x3c70a496	0.014687678
82	0x3cbab172	0.02278969
83	0xbc7725ab	-0.015084664
84	0xbc429c4e	-0.011878086
85	0x3d9cb793	0.076522015
86	0xbc4a8dd8	-0.01236292
87	0x3c5bda6c	0.013418775
88	0xbe23aca9	-0.15983833
89	0xbd8a37a1	-0.067488916
90	0xbda66caf	-0.081261985
91	0x3cef2ca4	0.029196091
92	0x3caee9bd	0.02135169
93	0xbda3d36e	-0.079993114
94	0x3c9c876b	0.019107541
95	0xbcd21a11	-0.025647195
96	0xbed94b6a	-0.4244035
97	0xbd43f774	-0.04784341
98	0xbe3dceb1	-0.18535878
99	0x3dc18de9	0.09450895
100	0x3d0bdf79	0.034148667
101	0xbc3cfb84	-0.011534575
102	0x3c4d2180	0.012520194
103	0xbd8616fe	-0.06547354
104	0xbc4c94e7	-0.012486673
105	0xb8ff07e6	-0.00012160819
106	0x3c220bbf	0.009890496
107	0xbc5ccdb9	-0.0134767825
108	0xbbce88b9	-0.0063029197
109	0x3d41c722	0.04730905
110	0xbaa1fcda	-0.0012358681
111	0x3c14e5d0	0.009087995
112	0x3dca50ca	0.098786905
113	0x3d0a14c9	0.03371123
114	0x3cb66639	0.02226554
115	0xbc6c2d30	-0.01441507
116	0xbbb61abe	-0.005557387
117	0xbb360078	-0.0027771275
118	0xbcb3a585	-0.021929512
119	0x3c35cbd8	0.011095963
120	0xbde9b829	-0.11412079
121	0xbd8520f2	-0.065004244
122	0xbd846db0	-0.06466234
123	0x3c000df0	0.007815823
124	0x3c8a0e66	0.016852569
125	0xbd8a328c	-0.06747922
126	0x3c96217b	0.018326512
127	0xbc44435c	-0.01197895

exp_avg_sq f4 [16, 8, 1]
0	0x3f6ad172	0.9172584
1	0x3fab939f	1.3404425
2	0x403627bc	2.8461752
3	0x3f207c3c	0.62689567
4	0x3ea6f408	0.32608056
5	0x410e5330	8.895309
6	0x3e95eef0	0.29283857
7	0x3f93f69f	1.1559638
8	0x3cd949eb	0.026524505
9	0x3db87d95	0.09008328
10	0x3d7265f2	0.059179254
11	0x3d6996a4	0.057028428
12	0x3bd25d40	0.0064198077
13	0x3e3044f4	0.17213804
14	0x3c36f5a4	0.011166964
15	0x3d0e933e	0.03480839
16	0x3f421ba0	0.758234
17	0x3fa49d60	1.2860527
18	0x400cda40	2.200821
19	0x3f04e671	0.51914126
20	0x3e7995c0	0.24373531
21	0x40d0f7e5	6.5302606
22	0x3e525c57	0.20543037
23	0x3f752095	0.9575284
24	0x3ec5a3a2	0.38601404
25	0x3e54cffd	0.20782466
26	0x3d853cae	0.06505714
27	0x3de8c26c	0.11365208
28	0x3c1cecf8	0.009577982
29	0x3e502289	0.20325674
30	0x3c0a52af	0.008442565
31	0x3ce5f010	0.028068572
32	0x420b7cb9	34.8718
33	0x41921f0d	18.265162
34	0x41958f20	18.694885
35	0x4082370d	4.06922
36	0x402176c6	2.5228744
37	0x424d818f	51.376522
38	0x3fef44f3	1.8692917
39	0x411d6594	9.837299
40	0x3d251a07	0.040308025
41	0x3f20f90f	0.62880033
42	0x3da64311	0.08118261
43	0x3e259898	0.16171491
44	0x3c4ad9c9	0.012381026
45	0x3f073e63	0.5282957
46	0x3d11f886	0.0356374
47	0x3dc57a08	0.09642416
48	0x3eb32401	0.34988406
49	0x3f1b6510	0.60701084
50	0x3ea96056	0.3308131
51	0x3e4509bf	0.19241999
52	0x3d6a0201	0.057130817
53	0x3fcbc9cb	1.5920957
54	0x3d85e5e7	0.06537991
55	0x3e8a0f2b	0.26964697
56	0x3ed7aa6e	0.42122215
57	0x3e9a33fc	0.30117786
58	0x3d9f9515	0.07792107
59	0x3dcc0d63	0.09963491
60	0x3c305317	0.010761998
61	0x3e95abb2	0.29232556
62	0x3c813137	0.015770538
63	0x3d1d32e9	0.03837863
64	0x3d310c4d	0.04322462
65	0x3d2153ab	0.039386433
66	0x3dac356f	0.08408629
67	0x3c462e59	0.012096011
68	0x3c0b068a	0.008485446
69	0x3e4344fa	0.19069281
70	0x3bf33f53	0.0074233203
71	0x3d571c31	0.05251712
72	0x3c12debf	0.00896424
73	0x3c00dcc1	0.007865132
74	0x3bd80fac	0.006593665
75	0x3a9474b1	0.0011326281
76	0x3a455866	0.0007528126
77	0x3ca0064c	0.019534253
78	0x3a1aaf99	0.00059008
79	0x3b43a779	0.002985446
80	0x3cc3dc32	0.023908708
81	0x3cd5efed	0.026115382
82	0x3d5d5137	0.05403253
83	0x3c0a9b7e	0.008459924
84	0x3b9f17a5	0.0048551136
85	0x3dea422c	0.114384025
86	0x3b8c93d5	0.004290084
87	0x3c8eb9d8	0.017422602
88	0x3dd6e2a4	0.10492447
89	0x3d5c0f17	0.05372533
90	0x3d792cf3	0.060833883
91	0x3c3906de	0.011293141
92	0x3bbf5e34	0.0058400873
93	0x3e146925	0.14493234
94	0x3b843003	0.0040340438
95	0x3be6ba51	0.0070412536
96	0x3f71bb2d	0.9442623
97	0x40290937	2.6411874
98	0x40686e39	3.6317275
99	0x3f21f43b	0.6326329
100	0x3ea474bd	0.32120314
101	0x40f0af7f	7.521423
102	0x3e99a2e3	0.30007085
103	0x3f77fb7f	0.9686813
104	0x3b215ef5	0.002462325
105	0x3cb1931a	0.021676589
106	0x3c7d2857	0.015451512
107	0x3bcee903	0.0063143983
108	0x3b03ce8b	0.0020112123
109	0x3d55ed6e	0.052228384
110	0x3b0d175b	0.0021528814
111	0x3c17a6a3	0.009256038
112	0x3db6fef6	0.08935349
113	0x3d93f492	0.072243825
114	0x3d55768b	0.052115005
115	0x3ca06a12	0.019581828
116	0x3bffa89a	0.0078020813
117	0x3e8f7c10	0.2802434
118	0x3bdbe5f1	0.0067107608
119	0x3cf1b1d0	0.029503733
120	0x3d84264b	0.06452616
121	0x3d074456	0.033024155
122	0x3d22b2a5	0.03972115
123	0x3bd886ed	0.0066078813
124	0x3b678068	0.0035324339
125	0x3da1b91f	0.07896637
126	0x3b1fddbf	0.0024393646
127	0x3b82e062	0.0039940337

exp_avg f4 [16]
0	0xbe39ed47	-0.1815692
1	0xbddb4386	-0.107062384
2	0xbe44319c	-0.1915955
3	0x3d92771f	0.07151627
4	0xc012b5c3	-2.2923439
5	0xbe0e4869	-0.1389481
6	0x3dd06265	0.10175017
7	0x3de45966	0.11149864
8	0x3d7b830b	0.06140427
9	0xbca6f766	-0.02038164
10	0x3d8c5e34	0.06853905
11	0xbdf45734	-0.11930695
12	0xbe2d7c7b	-0.16942017
13	0x3cf37584	0.029719122
14	0x3cb778ce	0.022396471
15	0xbe078c42	-0.13237098

exp_avg_sq f4 [16]
0	0x41bf7f8b	23.937277
1	0x3f94374a	1.1579373
2	0x418023c0	16.017456
3	0x3fb395ca	1.4030087
4	0x430926e2	137.15189
5	0x408eacd5	4.4585977
6	0x40ffec06	7.9975615
7	0x40038bd5	2.0554097
8	0x3ef36366	0.47536772
9	0x3d27f4b2	0.041004844
10	0x3e8a59da	0.27021676
11	0x3e9e08d9	0.30866125
12	0x41a1fb89	20.24782
13	0x3e3614cb	0.1778137
14	0x3f32523b	0.69656724
15	0x3e3f639c	0.18690342

exp_avg f4 [8]
0	0x388c2a8a	6.683644e-05
1	0x3d43d1d7	0.04780754
2	0xb9ad21c7	-0.00033022297
3	0xb9064836	-0.00012806137
4	0xbeec93af	-0.46206424
5	0xbb12c3db	-0.002239457
6	0x3ad7242b	0.0016413977
7	0x38e154a3	0.00010744601

exp_avg_sq f4 [8]
0	0x3ce469b5	0.027882436
1	0x40089f96	2.1347404
2	0x3ae68261	0.0017586463
3	0x3cbd3242	0.023095254
4	0x40a8e7a5	5.278277
5	0x3a8d1eae	0.001076659
6	0x3ae879a1	0.0017736444
7	0x3ba95c14	0.0051684473

exp_avg f4 [8]
0	0xb840ca97	-4.5965044e-05
1	0xbcd81bdf	-0.026380477
2	0x3a40bddf	0.0007352512
3	0xb8b30e2f	-8.538027e-05
4	0xbd64a121	-0.055817727
5	0xbb85a7d0	-0.0040788427
6	0xbb25b6d0	-0.0025285967
7	0x389cd04c	7.477458e-05

exp_avg_sq f4 [8]
0	0x3c710784	0.0147112645
1	0x41bb4faf	23.413908
2	0x3b7ad944	0.0038276473
3	0x3c254dac	0.010089319
4	0x4309223c	137.13373
5	0x3b64d78f	0.0034918522
6	0x3b173201	0.0023070576
7	0x3b2c941f	0.0026333404

exp_avg f4 [1, 8]
0	0xb976ba2d	-0.00023529744
1	0x3dc40cc5	0.09572748
2	0xb856d681	-5.122135e-05
3	0x384ae1eb	4.8370955e-05
4	0xbf3700f2	-0.7148582
5	0x3b9cd985	0.0047866725
6	0xbc0e5a17	-0.008688471
7	0xbb3add42	-0.0028513228

exp_avg_sq f4 [1, 8]
0	0x3d9815a3	0.07426002
1	0x41660f9b	14.37881
2	0x3c31210f	0.010811104
3	0x3d7bb7f0	0.061454713
4	0x41ddb08f	27.71121
5	0x3bf7ad89	0.007558529
6	0x3c053e3b	0.008132513
7	0x3ca00807	0.019535078

exp_avg f4 [8]
0	0xc068b303	-3.635926
1	0xbfe40bec	-1.7816138
2	0x3f783df2	0.9696952
3	0xc249ba93	-50.4322
4	0xc00b064b	-2.172259
5	0x3ec31b1b	0.38106617
6	0xc0e2779f	-7.077102
7	0xc24820cf	-50.03204

exp_avg_sq f4 [8]
0	0x453e14c1	3041.297
1	0x44a5efab	1327.4896
2	0x4181e65a	16.237476
3	0x4929c8ce	695436.9
4	0x450071f0	2055.121
5	0x426a8fb8	58.64035
6	0x4686d56d	17258.713
7	0x472cb860	44216.375
