model_ckpts/S4D_0.005_8_64_1000_ckpt_24123_20250408.pth (torch, 31686 bytes, 33 tensors)

embedding.weight f4 [2, 8]
-0.24708635 1.4659309 -0.8445168 -1.2790005 -0.51281244 0.59677 1.3238082 -0.9373961
0.0 0.0 0.0 0.0 0.0 0.0 0.0 0.0
00000000: 3404 7dbe a0a3 bb3f 4132 58bf 4ab6 a3bf
00000010: ad47 03bf ebc5 183f 8c72 a93f 31f9 6fbf
00000020: 0000 0000 0000 0000 0000 0000 0000 0000
00000030: 0000 0000 0000 0000 0000 0000 0000 0000

s4d_layers.0.D f4 [8]
-0.20286073 0.915119 0.22482412 0.061683975 -0.16103487 -1.0166824 -0.09704544 0.28780183
00000000: b9ba 4fbe 3d45 6a3f 4b38 663e 56a8 7c3d
00000010: 53e6 24be a622 82bf c2bf c6bd c35a 933e

s4d_layers.0.kernel.C f4 [8, 32, 2]
-0.16452658 -0.466763 0.41748607 0.06585109 -1.0198356 0.22571391 0.8838864 0.4387615
0.5115585 0.25564244 0.3008396 0.08556017 -0.84848464 0.18489887 1.1827259 -0.009149945
-1.3373877 0.0014347306 -1.3565279 0.03104229 -1.4717779 0.1590919 1.1470088 0.3258952
0.95100284 0.21448584 1.1937352 0.12868032 -1.0589173 0.018398054 0.11454847 0.37012368
0.6307593 0.28812292 1.5601146 0.2211817 1.950136 -0.027039403 -1.2114968 -0.019074751
-0.83703935 0.04581655 -0.7453584 0.039000608 -0.7629149 0.14940211 -0.79116154 0.2079238
-0.68663996 0.21181712 -0.036227293 0.23160695 0.648379 0.11865017 -0.1752717 0.23286583
0.3332847 0.20211126 -0.24515173 0.12586044 0.629208 0.23398365 0.9567154 0.17018123
0.54620284 0.0012226838 0.4534268 8.042421e-05 -0.026462976 0.13188976 0.011313808 0.5054855
0.073457986 0.5334648 0.12431504 0.46903065 0.0027530685 0.30913064 -0.076056376 0.11688404
-0.43003428 0.109837286 -0.5227024 0.2147778 -0.5097269 0.27648133 -0.8090122 0.40716448
-0.8043233 0.49823526 -0.57804894 0.71362954 -0.2778602 0.86141217 0.04666639 0.98461056
0.39759922 1.0607696 0.5490771 1.0493618 0.80917645 0.9456294 0.9764148 0.81341416
1.2517385 0.59642565 1.7054816 0.3561143 2.0586593 0.06494447 1.886177 -0.17580445
1.694312 -0.33555472 1.5229659 -0.6348356 1.3337246 -0.9279913 1.1011044 -1.0170345
0.6694339 -0.96039873 0.37967032 -0.9540208 -0.30693567 -1.0329692 -1.5586975 -0.8184246
-0.12666278 9.539197e-05 1.1308695 -0.78622395 0.51021916 -2.0072377 -1.0502211 -0.4931462
-1.3283042 0.65374655 0.055308834 1.267963 2.0240204 0.02350005 1.3171719 -0.49278557
-0.5194803 -0.88915986 -1.2414124 -0.66169083 -0.32358974 0.38449943 0.6653921 0.62793165
0.13804841 0.08963409 0.7437332 -0.87389106 -0.7594597 -0.8016273 -0.81864536 -0.44846606
-1.0968891 0.26981774 0.36993957 0.44091243 0.31824157 -0.1324107 0.16189677 -0.07059274
0.024867104 -0.42357728 -0.03239114 0.27913532 0.71121246 0.8682724 1.19911 -0.024381157
0.19390617 -0.4988933 0.1511486 -0.5208148 1.0475227 -0.3359198 0.46103114 -0.18476093
-0.10532038 -0.43298954 0.2339638 -0.4194003 -0.26855624 0.4058574 -0.6530797 -0.36425602
-0.2739349 -1.1595384e-08 -0.076752335 0.060208194 -0.2514138 0.18067929 -0.079761766 0.1966427
0.033031795 -0.035122994 0.07959256 0.167223 0.035830736 0.050364275 0.4824136 0.008768637
0.26358274 0.22850856 0.14896545 0.32427484 -0.076951124 0.12655346 -0.12793347 0.09973015
0.2337957 0.09758031 -0.22385663 -0.1158928 0.335063 0.3181157 -0.28233704 0.6684665
-0.8020538 0.04277807 -0.7524101 0.035756033 -1.1487657 0.036278803 -0.906983 -1.3945658
-0.4239097 -2.0832336 0.2617442 -2.0088844 1.0481492 -2.4218678 2.995157 -2.203893
1.7509428 2.096328 3.1440885 0.83629304 0.5203992 4.205957 -1.9785985 2.7067776
-3.0891187 -0.6128544 -0.69165653 -2.5986342 1.2666881 1.0354809 -0.92800885 0.7630871
00000000: a879 28be 8ffb eebe bcc0 d53e f0dc 863d
00000010: f989 82bf 8c21 673e 6146 623f 59a5 e03e
00000020: 7ff5 023f 91e3 823e a607 9a3e 2c3a af3d
00000030: 4a36 59bf 2156 3d3e 9063 973f a7e9 15bc
00000040: 852f abbf 920d bc3a b5a2 adbf 674c fe3c
00000050: 3863 bcbf fde8 223e 2fd1 923f bcdb a63e
00000060: ec74 733f 2da2 5b3e 51cc 983f c6c4 033e
00000070: 9a8a 87bf 84b7 963c 6398 ea3d da80 bd3e
00000080: 7179 213f d984 933e d6b1 c73f 757d 623e
00000090: 0e9e f93f bd81 ddbc 5412 9bbf a742 9cbc
000000a0: 3648 56bf 22aa 3b3d cfcf 3ebf 1abf 1f3d
000000b0: 644e 43bf defc 183e 9089 4abf fae9 543e
000000c0: a3c7 2fbf 96e6 583e 1263 14bd 5f2a 6d3e
000000d0: 2bfc 253f dcfe f23d 6d7a 33be 6174 6e3e
000000e0: 4ba4 aa3e 41f6 4e3e 0e09 7bbe 8fe1 003e
000000f0: c713 213f 6999 6f3e 4deb 743f fd43 2e3e
00000100: f3d3 0b3f 7642 a03a 8f27 e83e 6ba9 a838
00000110: e2c8 d8bc 1c0e 073e 8d5d 393c 7f67 013f
00000120: 2471 963d 2691 083f e298 fe3d c924 f03e
00000130: d36c 343b 5f46 9e3e 72c3 9bbd e660 ef3d
00000140: 742d dcbe 5ff2 e03d d3cf 05bf b6ee 5b3e
00000150: 767d 02bf f68e 8d3e 6c1b 4fbf dd77 d03e
00000160: 22e8 4dbf b118 ff3e 04fb 13bf 6db0 363f
00000170: b143 8ebe 8285 5c3f 4225 3f3d 700f 7c3f
00000180: 2092 cb3e 4cc7 873f 5190 0c3f 7d51 863f
00000190: 3026 4f3f c514 723f 52f6 793f e93b 503f
000001a0: f838 a03f 5aaf 183f 394d da3f 9d54 b63e
000001b0: 13c1 0340 9b01 853d 3f6e f13f 1506 34be
000001c0: 37df d83f d4cd abbe 8cf0 c23f 9684 22bf
000001d0: 7db7 aa3f d690 6dbf fdf0 8c3f 302e 82bf
000001e0: 0560 2b3f b1dc 75bf 2664 c23e b53a 74bf
000001f0: ac26 9dbe 5638 84bf 6683 c7bf 4684 51bf
00000200: e3b3 01be 2d0d c838 55c0 903f f945 49bf
00000210: b99d 023f 9576 00c0 a56d 86bf a97d fcbe
00000220: df05 aabf ef5b 273f 848b 623d 9d4c a23f
00000230: 8d89 0140 2d83 c03c 1799 a83f 644e fcbe
00000240: a9fc 04bf fb9f 63bf 9ae6 9ebf 9264 29bf
00000250: 8ead a5be 1cdd c43e 2357 2a3f 21c0 203f
00000260: 905c 0d3e 1492 b73d 4d65 3e3f 53b7 5fbf
00000270: f36b 42bf 7237 4dbf be92 51bf 589d e5be
00000280: dd66 8cbf 8d25 8a3e b868 bd3e 46bf e13e
00000290: 8ff0 a23e ac96 07be 44c8 253e ed92 90bd
000002a0: 19b6 cb3c 1fdf d8be 92ac 04bd d3ea 8e3e
000002b0: 0512 363f 1a47 5e3f 707c 993f feba c7bc
000002c0: 578f 463e f16e ffbe b3c6 1a3e 1e54 05bf
000002d0: 3915 863f aefd abbe 460c ec3e f831 3dbe
000002e0: 36b2 d7bd ceb0 ddbe 3594 6f3e a3bb d6be
000002f0: 3480 89be 8bcc cf3e 3b30 27bf c47f babe
00000300: 3241 8cbe 0a35 47b2 5430 9dbd de9c 763d
00000310: 4fb9 80be fe03 393e 235a a3bd b45c 493e
00000320: 594c 073d 21dd 0fbd 6d01 a33d 823c 2b3e
00000330: 40c3 123d c54a 4e3d eafe f63e 54aa 0f3c
00000340: 51f4 863e 26fe 693e 668a 183e 5a07 a63e
00000350: 8d98 9dbd 3b97 013e fe00 03be 523f cc3d
00000360: 2468 6f3e 30d8 c73d ac3a 65be 3459 edbd
00000370: 618d ab3e 10e0 a23e 7b8e 90be 9f20 2b3f
00000380: 6653 4dbf 0f38 2f3d f39d 40bf eb74 123d
00000390: c10a 93bf 1599 143d 0a30 68bf 2281 b2bf
000003a0: b10a d9be b353 05c0 5603 863e 9091 00c0
000003b0: c129 863f e2ff 1ac0 a7b0 3f40 950c 0dc0
000003c0: e51e e03f 3d2a 0640 bf38 4940 4d17 563f
000003d0: e238 053f 3397 8640 b742 fdbf d83b 2d40
000003e0: 1fb4 45c0 07e4 1cbf 6710 31bf 0650 26c0
000003f0: d622 a23f a38a 843f fd91 6dbf ad59 433f

s4d_layers.0.kernel.log_dt f4 [8]
-2.651223 -5.9201713 -3.2808275 -4.930704 -4.7574453 -4.8004885 -4.271113 -2.584758
00000000: a3ad 29c0 0b72 bdc0 14f9 51c0 54c8 9dc0
00000010: fe3c 98c0 9a9d 99c0 f5ac 88c0 ad6c 25c0

s4d_layers.0.kernel.log_A_real f4 [8, 32]
-1.3181754 -1.1191546 -0.9706287 -1.0650986 -0.86559343 0.39428174 -0.29946664 -0.4366
-0.13716604 0.020597126 -0.26075488 -0.19561975 -0.07802 -0.42716584 0.21648546 -0.071407564
0.08652873 0.24104686 0.08052122 -0.4246928 0.05417868 0.22326784 1.1209161 0.475644
0.8780514 0.73920006 -1.0727572 1.0678706 1.045095 -0.6786065 0.7107191 -0.06588682
6.6786685 6.628968 4.399632 0.6882873 -0.9645298 0.41486648 1.9572537 2.0627391
-1.1488912 -0.6550886 -0.1261522 -0.8329935 -1.9302119 -1.6459501 -1.2435633 -1.7694244
-1.5590775 -2.2053668 -2.71788 -2.136013 -2.0756576 -1.8354132 -2.055102 -2.1555176
-1.6122669 -2.1614008 -2.772897 -3.2796435 -2.7152402 -2.912211 -4.0190573 -9.01009
0.7436216 -0.17297837 -0.33785784 0.2570173 -0.019765813 -0.4263443 -0.3085219 -1.251492
0.112952396 0.80891377 -1.4024113 0.33404613 -1.2496892 -0.03468544 0.16176215 -0.35283148
-0.8597027 0.55598605 0.18126859 0.49682555 -0.097103655 -2.8408055 -0.67869955 -0.4023087
-8.901759 0.43841973 -0.7538704 -0.7855969 0.17061006 1.6876856 -8.463267 -0.34503487
-1.0660596 -1.1205899 -3.5720603 -5.3479204 8.582973 -3.7734625 -0.6679264 -4.536196
-3.8465195 -7.0809164 -4.1264853 -3.3970478 -1.626181 -5.534004 -3.6369717 -6.6439238
-8.943812 -7.0725017 -10.703308 -11.97993 -18.322937 -17.39565 -19.374298 -18.89683
-18.610563 -20.34782 -19.99852 -19.066103 -18.67546 -15.980232 -11.861828 -8.827743
2.0459867 -2.7988694 -1.0348996 -5.811881 -5.4658217 -1.9676992 -3.9818454 -1.1170484
-5.081097 -2.9581337 -3.294809 -4.173069 -3.9499772 0.6392216 -6.3370886 -6.2077613
0.16652139 -6.423322 -1.4802703 -0.10285007 -8.513401 -1.9099288 -2.424994 -7.198547
-9.361652 -8.139231 -8.063423 -4.5368524 -2.1600513 -4.694626 -1.58828 -0.725385
4.1212626 -2.7787817 -1.460672 -1.2552618 -0.7492191 -0.9735491 -0.43936828 0.34228083
-0.96503496 0.018047068 -0.51398385 -1.3898636 -0.38228884 -3.0414653 -0.78002876 -3.45971
-4.5226817 -1.7540079 -2.3158777 -5.077578 -6.5118814 -7.164526 -3.606953 -4.6484914
-4.275973 -3.4758582 -2.055168 -1.7283559 -4.688123 -3.1376734 -2.0818303 -4.274211
-0.30962363 -0.12110142 -0.7976211 -1.859675 -0.17616491 -3.6415362 -5.881167 0.0008759531
-2.4681513 -4.2407255 -3.3782103 -1.2623061 -5.502807 -6.8379173 -8.596376 -3.1745033
-5.312993 -8.2933 -2.589195 -2.5324547 -1.5992512 -4.0649333 -2.8439786 -1.2881781
-2.1980135 -2.1374202 -1.596008 -4.60573 -9.237307 -4.9860997 -1.8057532 -0.8878453
-0.5943958 -1.2352984 -0.74917996 -1.1016208 -0.98666257 -2.1344936 -1.5735633 -1.2845677
-1.6354309 -1.1892377 -1.5288404 -1.0978336 -2.0262325 -0.064733155 -1.5816951 -1.4633693
-1.3513501 -1.1613386 -1.0647451 -0.082780994 -0.88919693 -1.3286922 -0.9192057 -0.91307306
-0.86856717 0.1255772 -1.536661 -0.79099846 -0.6398331 -1.3273901 -1.286994 -1.1014513
00000000: f9b9 a8bf 7540 8fbf 1f7b 78bf 2755 88bf
00000010: 8897 5dbf 4cdf c93e b153 99be 098a dfbe
00000020: 4175 0cbe 4ebb a83c aa81 85be 8b50 48be
00000030: f3c8 9fbd 7bb5 dabe 5dae 5d3e 213e 92bd
00000040: fa35 b13d fdd4 763e 4fe8 a43d 5671 d9be
00000050: 77ea 5d3d 53a0 643e 2e7a 8f3f 9c87 f33e
00000060: fac7 603f 373c 3d3f 1c50 89bf fcaf 883f
00000070: acc5 853f 28b9 2dbf b0f1 353f abef 86bd
00000080: a7b7 d540 8120 d440 c9c9 8c40 9933 303f
00000090: 6deb 76bf 6169 d43e 4a87 fa3f eb03 0440
000000a0: de0e 93bf e3b3 27bf 0b2e 01be 103f 55bf
000000b0: 2f11 f7bf 7eae d2bf 152d 9fbf 807c e2bf
000000c0: da8f c7bf bb24 0dc0 bff1 2dc0 70b4 08c0
000000d0: 93d7 04c0 d2ee eabf cb86 03c0 00f4 09c0
000000e0: c35e cebf 6454 0ac0 2577 31c0 aee5 51c0
000000f0: 7fc6 2dc0 aa61 3ac0 1e9c 80c0 5429 10c1
00000100: fc5d 3e3f 3e21 31be b4fb acbe c697 833e
00000110: eaeb a1bc cd49 dabe 95f6 9dbe e430 a0bf
00000120: 9653 e73d f914 4f3f 3782 b3bf 1808 ab3e
00000130: d1f5 9fbf 5212 0ebd faa4 253e 54a6 b4be
00000140: 7a15 5cbf 1a55 0e3f 799e 393e eb5f fe3e
00000150: 48de c6bd c2cf 35c0 41bf 2dbf 68fb cdbe
00000160: 9b6d 0ec1 8d78 e03e a7fd 40bf e11c 49bf
00000170: 67b4 2e3e 1506 d83f 8b69 07c1 69a8 b0be
00000180: a474 88bf 7d6f 8fbf a39c 64c0 2a22 abc0
00000190: db53 0941 6980 71c0 39fd 2abf 8528 91c0
000001a0: 602d 76c0 de96 e2c0 2b0c 84c0 3b69 59c0
000001b0: b326 d0bf 9016 b1c0 25c4 68c0 069b d4c0
000001c0: db19 0fc1 ef51 e2c0 c040 2bc1 cbad 3fc1
000001d0: 6095 92c1 4b2a 8bc1 90fe 9ac1 b52c 97c1
000001e0: 6fe2 94c1 56c8 a2c1 f8fc 9fc1 6187 98c1
000001f0: 5867 95c1 08af 7fc1 0cca 3dc1 6f3e 0dc1
00000200: 72f1 0240 ad20 33c0 9777 84bf eefa b9c0
00000210: 03e8 aec0 91dd fbbf 8ed6 7ec0 71fb 8ebf
00000220: 5998 a2c0 1052 3dc0 27de 52c0 c889 85c0
00000230: 6dcc 7cc0 07a4 233f 6ec9 cac0 fba5 c6c0
00000240: 9584 2a3e db8b cdc0 7f79 bdbf 0fa3 d2bd
00000250: e436 08c1 8c78 f4bf 1a33 1bc0 7f5a e6c0
00000260: 54c9 15c1 4a3a 02c1 c803 01c1 e52d 91c0
00000270: 483e 0ac0 603a 96c0 c24c cbbf d5b2 39bf
00000280: 62e1 8340 8fd7 31c0 4df7 babf 6bac a0bf
00000290: d3cc 3fbf 843a 79bf e1f4 e0be 6f3f af3e
000002a0: 880c 77bf 72d7 933c 7294 03bf 0de7 b1bf
000002b0: 5dbb c3be 5ea7 42c0 f7af 47bf e36b 5dc0
000002c0: cfb9 90c0 5583 e0bf 5737 14c0 857b a2c0
000002d0: 5561 d0c0 cc43 e5c0 51d8 66c0 71c0 94c0
000002e0: c5d4 88c0 7674 5ec0 df87 03c0 c43a ddbf
000002f0: 1b05 96c0 a4cf 48c0 b53c 05c0 56c6 88c0
00000300: fd86 9ebe 0504 f8bd e530 4cbf d509 eebf
00000310: 9364 34be ee0e 69c0 8532 bcc0 38a0 653a
00000320: 31f6 1dc0 06b4 87c0 9934 58c0 3f93 a1bf
00000330: ff16 b0c0 38d0 dac0 c28a 09c1 102b 4bc0
00000340: 0a04 aac0 5bb1 04c1 5fb5 25c0 bd13 22c0
00000350: 43b4 ccbf ef13 82c0 bf03 36c0 05e3 a4bf
00000360: 41ac 0cc0 7ecb 08c0 fd49 ccbf 2462 93c0
00000370: 02cc 13c1 218e 9fc0 ec22 e7bf d449 63bf
00000380: 532a 18bf 421e 9ebf 42ca 3fbf e901 8dbf
00000390: eb95 7cbf 8b9b 08c0 866a c9bf b76c a4bf
000003a0: cd55 d1bf f138 98bf 0bb1 c3bf d085 8cbf
000003b0: cbad 01c0 d192 84bd fc74 cabf af4f bbbf
000003c0: 0af9 acbf bea6 94bf 9149 88bf 1589 a9bd
000003d0: 69a2 63bf 9612 aabf 1151 6bbf 28bf 69bf
000003e0: 6b5a 5ebf 4f97 003e 4fb1 c4bf e07e 4abf
000003f0: 1acc 23bf ebe7 a9bf 38bc a4bf 5bfc 8cbf

s4d_layers.0.kernel.A_imag f4 [8, 32]
-0.8420478 2.1022205 7.2857485 8.718958 14.315583 17.259998 17.151918 23.129532
26.726437 26.832497 30.826862 37.11534 38.60978 40.57294 44.4636 48.42656
49.57959 52.865532 55.173473 61.914337 63.805862 63.814148 70.7953 73.23527
75.740555 78.9154 81.13326 84.84787 89.26318 91.21965 95.73225 97.095825
-0.0012247248 -0.0001228197 8.445332 11.603772 12.992721 15.308531 18.720705 25.805159
26.733208 28.736193 32.115433 36.518314 37.934242 40.503983 43.902225 47.79577
51.16099 52.871696 56.482613 59.42411 62.310375 65.06241 68.31308 71.63955
73.9828 77.73597 81.4643 83.56291 88.00594 91.88093 94.598145 97.630516
-0.000135462 3.7895849 4.777139 8.007287 10.855715 13.954445 18.60221 20.014896
23.728455 27.646477 31.849081 35.245743 36.000153 39.523247 42.098988 45.939404
48.198856 53.820858 58.088383 58.70529 60.89076 67.54016 69.040215 71.8609
77.17856 75.51398 80.66055 84.60258 86.237236 88.21972 95.448784 93.235596
1.2235203e-08 4.210446 4.7667117 7.3395166 7.7449574 14.732627 17.274717 20.341461
22.7578 24.968021 28.815126 31.445337 33.40271 35.23 37.947887 41.4403
44.92229 49.125797 53.524017 56.911484 60.892036 64.74341 68.89349 72.822075
75.256325 81.13136 83.84351 87.64664 91.33956 94.54026 97.11192 99.753265
-1.5683288e-25 2.6488276 7.179835 9.390534 13.223792 15.173844 19.45721 23.730822
24.038637 28.748562 32.695473 32.855034 37.541183 40.969097 43.183094 48.053177
49.978622 53.217648 57.248383 58.435917 61.838215 69.09266 66.311844 69.560165
73.830505 78.75175 83.27629 84.35333 87.46803 92.21094 93.46861 97.60888
-4.8786883e-15 2.650951 6.767267 6.827929 10.366408 13.317603 18.74899 22.078753
22.876028 26.35405 28.987543 36.839546 38.89134 44.032764 44.077892 48.466297
51.188602 51.39135 56.306015 56.291203 63.884216 63.626846 69.62937 73.14729
75.30423 83.62136 83.376854 85.53597 86.23712 91.06098 93.49463 96.4196
-0.00040052203 3.371615 5.7496758 8.355241 13.348456 15.457425 19.78738 21.281786
24.901485 28.077988 32.198315 34.6623 38.188107 40.77608 43.685886 46.923695
50.260094 52.966297 54.82639 58.99817 61.975376 65.63358 68.999466 72.10558
73.70942 79.65743 82.126785 85.402626 87.148125 92.1739 94.75385 96.66282
-0.7057662 1.0575758 6.208167 9.283776 12.036641 16.718054 18.07551 22.451588
26.010426 26.386835 30.86671 32.91276 37.03511 38.160835 43.005157 48.930893
51.219643 52.376007 55.841022 60.18135 64.60013 66.05844 69.11084 72.76396
76.99448 79.2883 82.31489 84.632095 88.53289 91.784225 93.62019 97.95492
00000000: 7290 57bf c88a 0640 da24 e940 da80 0b41
00000010: a10c 6541 7a14 8a41 2137 8941 4809 b941
00000020: becf d541 f4a8 d641 6a9d f641 1c76 1442
00000030: 6a70 1a42 b14a 2242 bada 3142 ccb4 4142
00000040: 8051 4642 4e76 5342 a3b1 5c42 48a8 7742
00000050: 3439 7f42 b041 7f42 3297 8d42 7578 9242
00000060: 2a7b 9742 afd4 9d42 3b44 a242 1cb2 a942
00000070: c086 b242 7670 b642 e976 bf42 1031 c242
00000080: f286 a0ba 2ac9 00b9 1420 0741 0da9 3941
00000090: 2fe2 4f41 beef 7441 01c4 9541 f770 ce41
000000a0: 9cdd d541 b9e3 e541 3476 0042 c112 1242
000000b0: aabc 1742 1404 2242 e19b 2f42 de2e 3f42
000000c0: dba4 4c42 9e7c 5342 32ee 6142 4ab2 6d42
000000d0: d33d 7942 f41f 8242 4ca0 8842 7347 8f42
000000e0: 32f7 9342 d178 9b42 b9ed a242 3620 a742
000000f0: 0b03 b042 09c3 b742 4032 bd42 d342 c342
00000100: ce0a 0eb9 8f88 7240 53de 9840 d91d 0041
00000110: 02b1 2d41 6845 5f41 53d1 9441 821e a041
00000120: e0d3 bd41 fc2b dd41 ebca fe41 a4fb 0c42
00000130: 2800 1042 ce17 1e42 5d65 2842 f3c1 3742
00000140: a1cb 4042 8f48 5742 815a 6842 38d2 6a42
00000150: 2390 7342 9014 8742 9714 8a42 c8b8 8f42
00000160: 6c5b 9a42 2807 9742 3452 a142 8534 a942
00000170: 7779 ac42 7f70 b042 c7e5 be42 a078 ba42
00000180: fe32 5232 f9bb 8640 e788 9840 52dd ea40
00000190: b1d6 f740 d7b8 6b41 9f32 8a41 50bb a241
000001a0: f90f b641 82be c741 6185 e641 0d90 fb41
000001b0: 609c 0542 85eb 0c42 a3ca 1742 dec2 2542
000001c0: 6db0 3342 d180 4442 9818 5642 5ca5 6342
000001d0: 7291 7342 a07c 8142 78c9 8942 e7a4 9142
000001e0: 3d83 9642 4243 a242 e1af a742 144b af42
000001f0: dbad b642 9d14 bd42 4e39 c242 ac81 c742
00000200: 5326 4296 6486 2940 35c1 e540 a13f 1641
00000210: a794 5341 11c8 7241 5ea8 9b41 b9d8 bd41
00000220: 214f c041 0efd e541 2ac8 0242 8e6b 0342
00000230: 2c2a 1642 5be0 2342 7dbb 2c42 7436 4042
00000240: 1cea 4742 dfde 5442 58fe 6442 61be 6942
00000250: 555a 7742 712f 8a42 aa9f 8442 ce1e 8b42
00000260: 38a9 9342 e580 9d42 768d a642 e8b4 a842
00000270: a2ef ae42 006c b842 eeef ba42 bf37 c342
00000280: f5c5 afa7 2ea9 2940 748d d840 657e da40
00000290: cfdc 2541 e714 5541 eefd 9541 49a1 b041
000002a0: 1b02 b741 18d5 d241 7de6 e741 b25b 1342
000002b0: bb90 1b42 8d21 3042 c34f 3042 7ddd 4142
000002c0: 21c1 4c42 be90 4d42 5c39 6142 312a 6142
000002d0: 7089 7f42 e481 7e42 3d42 8b42 6a4b 9242
000002e0: c49b 9642 233e a742 f3c0 a642 6b12 ab42
000002f0: 6879 ac42 391f b642 40fd ba42 d6d6 c042
00000300: 28fd d1b9 8ac8 5740 58fd b740 11af 0541
00000310: 4793 5541 9d51 7741 8e4c 9e41 1941 aa41
00000320: 3e36 c741 b89f e041 13cb 0042 32a6 0a42
00000330: 9fc0 1842 b51a 2342 59be 2e42 ddb1 3b42
00000340: 560a 4942 7ddd 5342 394e 5b42 20fe 6b42
00000350: c9e6 7742 6544 8342 baff 8942 0f36 9042
00000360: 396b 9342 9b50 9f42 ea40 a442 25ce aa42
00000370: d74b ae42 0959 b842 f981 bd42 5d53 c142
00000380: 18ad 34bf a55e 873f 4ea9 c640 598a 1441
00000390: 1596 4041 93be 8541 a59a 9041 da9c b341
000003a0: 5a15 d041 3d18 d341 06ef f641 aba6 0342
000003b0: f423 1442 b2a4 1842 4805 2c42 3cb9 4342
000003c0: eae0 4c42 0881 5142 355d 5f42 b4b9 7042
000003d0: 4433 8142 ec1d 8442 c038 8a42 2687 9142
000003e0: 2cfd 9942 9c93 9e42 39a1 a442 a243 a942
000003f0: d710 b142 8691 b742 8a3d bb42 ebe8 c342

s4d_layers.0.output_linear.0.weight f4 [16, 8, 1]
0.22062324 -1.1494948 -0.8137384 -0.32995495 -0.57331455 0.51137275 2.338345 0.7004187
-0.28954893 -1.1839213 0.17441694 0.9129875 -0.5218876 0.44547763 -0.20843846 -0.111557975
-0.039059818 0.33257693 0.304715 -1.5300741 0.09370777 -0.30751014 -1.5248116 -0.34381333
-0.29880366 0.74077326 0.79642266 -1.2415841 0.4212784 -0.4787091 -2.2432735 -0.630269
-0.24690337 -0.3144669 -0.20776366 -2.3459964 -0.14629306 0.14226869 -0.3691643 0.07729125
-0.11460843 -0.26670372 0.23987246 -0.09099747 -1.3859483 0.15288478 0.32288107 -0.23333585
-0.03530953 -0.5865124 0.27022216 -0.03828827 -1.6439428 -0.031303268 0.57563627 -0.2655855
-0.91112787 0.5513155 1.199222 -1.0434852 -0.88853014 -0.25223863 -2.7377582 -0.5245715
0.0018422682 1.1390525 1.1306499 -0.25046736 0.19810842 -0.6459414 -3.4088616 -1.9530486
-0.18469463 0.7926868 -0.9962693 1.4318417 1.4550796 1.204105 1.3052802 -0.24199077
0.05287376 -0.0819857 -0.449038 -1.833373 1.4379185 -0.6657408 0.0233515 -0.672936
0.4201631 -0.14295724 0.22894646 -1.3854793 1.5343045 -1.1046896 -0.3104916 -1.1655653
0.3689048 -0.12450988 -1.1893458 -2.3833058 1.1625468 -0.09332648 2.2341356 -0.13467945
-0.41931847 1.4916322 -0.60588014 -0.5499005 0.78174686 0.6402005 2.2415125 -0.09827349
-0.48498383 1.7095615 -0.72156286 -0.08160084 0.9254295 1.094237 2.4520953 -0.10638078
0.8818475 0.116529554 -0.10038825 -0.9283437 1.1099647 -0.8690574 1.5395714 -1.2768419
00000000: 0feb 613e a522 93bf 2951 50bf dbef a8be
00000010: bec4 12bf 53e9 023f 72a7 1540 a44e 333f
00000020: c23f 94be bc8a 97bf 5b9a 323e 8cb9 693f
00000030: 6d9a 05bf a515 e43e e470 55be 8278 e4bd
00000040: 30fd 1fbd 8647 aa3e 9b03 9c3e 78d9 c3bf
00000050: dce9 bf3d f871 9dbe 072d c3bf 4d08 b0be
00000060: cbfc 98be 51a3 3d3f 5be2 4b3f 3aec 9ebf
00000070: cdb1 d73e 5c19 f5be cb91 0fc0 4f59 21bf
00000080: 3dd4 7cbe ce01 a1be ffbf 54be ce24 16c0
00000090: d9cd 15be e2ae 113e 1a03 bdbe e04a 9e3d
000000a0: d3b7 eabd 648d 88be 20a1 753e e25c babd
000000b0: c166 b1bf d48d 1c3e ab50 a53e 98ef 6ebe
000000c0: baa0 10bd ad25 16bf 8f5a 8a3e 29d4 1cbd
000000d0: b86c d2bf db37 00bd e65c 133f d3fa 87be
000000e0: ad3f 69bf 0323 0d3f 1b80 993f ec90 85bf
000000f0: b676 63bf 6c25 81be 6e37 2fc0 514a 06bf
00000100: 4378 f13a 79cc 913f 23b9 903f 423d 80be
00000110: efdc 4a3e 6a5c 25bf ca2a 5ac0 7ffd f9bf
00000120: 9720 3dbe 86ed 4a3f 810b 7fbf 9746 b73f
00000130: 0c40 ba3f 1d20 9a3f 6c13 a73f 6ecc 77be
00000140: 2892 583d 1ee8 a7bd 4fe8 e5be f7ab eabf
00000150: b70d b83f fd6d 2abf a54b bf3c 8945 2cbf
00000160: 9e1f d73e 6263 12be f170 6a3e 6357 b1bf
00000170: 1764 c43f 7866 8dbf c1f8 9ebe 3e31 95bf
00000180: 17e1 bc3e 09ff febd 7c3c 98bf 1588 18c0
00000190: 55ce 943f f421 bfbd 14fc 0e40 69e9 09be
000001a0: e9b0 d6be ceed be3f f61a 1bbf 47c6 0cbf
000001b0: 9020 483f 2ee4 233f f174 0f40 9d43 c9bd
000001c0: cd4f f8be e9d2 da3f 58b8 38bf 571e a7bd
000001d0: f3e8 6c3f f50f 8c3f 21ef 1c40 2bde d9bd
000001e0: c2c0 613f 0ca7 ee3d 5b98 cdbd efa7 6dbf
000001f0: 5313 8e3f 8c7a 5ebf ad10 c53f 8e6f a3bf

s4d_layers.0.output_linear.0.bias f4 [16]
-0.19556862 -0.47770667 0.4023622 0.36188567 0.21217707 0.054000784 0.1367091 0.063121445
0.24506097 -0.7607829 0.28132123 0.4099612 0.23247339 -0.6520675 -0.7823731 0.35577056
00000000: 2443 48be f895 f4be 6b02 ce3e 1449 b93e
00000010: f244 593e ed2f 5d3d 78fd 0b3e d145 813d
00000020: 43f1 7a3e abc2 42bf 5609 903e 6fe6 d13e
00000030: 810d 6e3e e5ed 26bf 9a49 48bf 8f27 b63e

norms.0.weight f4 [8]
2.793321 0.20672622 0.29144785 0.124877736 0.7455911 0.22453603 0.11430115 0.029973518
00000000: c5c5 3240 0ab0 533e a738 953e e6bf ff3d
00000010: 0fdf 3e3f c6ec 653e b916 ea3d 068b f53c

norms.0.bias f4 [8]
-0.6606154 -0.3040111 -0.27679804 0.14330867 0.50978166 -0.14953664 -0.14766735 0.011712053
00000000: 171e 29bf 58a7 9bbe 79b8 8dbe 82bf 123e
00000010: 0d81 023f 2220 19be 1c36 17be e9e3 3f3c

cl_head.weight f4 [1, 8]
2.2008526 0.007982324 0.28142193 0.007910565 -1.0400518 -0.010319324 -0.013388545 0.006582439
00000000: c5da 0c40 4bc8 023c 8916 903e 509b 013c
00000010: 6b20 85bf 6212 29bc a15b 5bbc 80b1 d73b

exp_avg f4 [2, 8]
4.8971353 -0.8767682 -0.61701584 -5.0627294 -3.72048 -0.65577686 -0.8309803 -2.292335
0.0 0.0 0.0 0.0 0.0 0.0 0.0 0.0
00000000: 55b5 9c40 e173 60bf c0f4 1dbf e101 a2c0
00000010: 581c 6ec0 fee0 27bf 20bb 54bf 9eb5 12c0
00000020: 0000 0000 0000 0000 0000 0000 0000 0000
00000030: 0000 0000 0000 0000 0000 0000 0000 0000

exp_avg_sq f4 [2, 8]
864.1975 24.65918 6.4210334 96.0022 412.593 16.760912 13.215942 110.806786
0.0 0.0 0.0 0.0 0.0 0.0 0.0 0.0
00000000: a40c 5844 0046 c541 1b79 cd40 2001 c042
00000010: e74b ce43 5916 8641 8074 5341 139d dd42
00000020: 0000 0000 0000 0000 0000 0000 0000 0000
00000030: 0000 0000 0000 0000 0000 0000 0000 0000

exp_avg f4 [8]
-0.2089448 -0.24133435 -0.12657192 -0.8522487 -0.94966143 -0.056020577 1.0097398 -1.2855792
00000000: a0f5 55be 5a20 77be 129c 01be f92c 5abf
00000010: 031d 73bf d575 65bd 273f 813f dc8d a4bf

exp_avg_sq f4 [8]
1.0528816 41.808857 0.6680443 19.990541 29.94091 0.06500488 17.987103 35.374035
00000000: d3c4 863f 453c 2742 f404 2b3f a1ec 9f41
00000010: fc86 ef41 4721 853d 96e5 8f41 037f 0d42

exp_avg f4 [8, 32, 2]
-0.2735828 -0.08241504 0.021820134 0.14011416 0.038270656 0.046524737 -0.008608833 0.02275945
0.010959824 0.06623896 -0.002135552 0.024983592 0.00076174637 0.029225186 0.0015086066 0.015569778
0.0009943317 0.012234931 1.8930401e-05 0.012298509 -0.012114637 0.013450661 0.0031683724 0.013781617
0.0050757285 0.011888687 -0.00399729 0.007174764 -0.0003484982 0.011897762 0.0009214951 0.0062272693
-0.0028246015 0.0075261025 -0.0020502303 0.011631198 0.0036189733 0.013351957 -0.0013615286 0.004528092
0.00012965851 0.008580157 0.00017681242 0.008182791 0.00032554034 0.0055642086 0.0001303573 0.0059265923
0.0013231412 0.0057002106 0.0013049326 0.004238785 -0.0017580276 0.0015132996 0.00051850756 0.004093226
-6.687136e-05 0.0029865357 0.00036420627 0.000933886 -0.0005389242 0.0038273453 -0.00033520005 0.0025551391
-0.000581149 -3.9766557e-10 -0.0006092969 1.3354635e-10 -0.0061195297 0.000930418 -0.091704816 0.051603295
-0.13975093 0.08928711 -0.060121924 0.12942192 -0.014569465 0.055873483 -0.0012728536 0.036238898
-0.019480864 0.04253254 0.0072329314 0.059450593 0.031842813 0.021876793 -0.023821918 0.010178669
-0.033786714 0.03877422 0.016134461 0.07511022 0.078019015 0.001976242 -0.031771824 -0.0869184
-0.13549455 0.0295405 -0.11834244 0.12117232 0.06907051 0.1904133 0.18222967 0.06850577
0.14911765 -0.07972998 0.031844407 -0.13106482 -0.0726149 -0.06836674 -0.06843736 0.020448485
-0.03482798 0.04041886 -0.01718346 0.035364218 -0.015383459 0.06541981 0.013749575 0.086095065
0.089619376 0.04624261 0.07877212 -0.011980604 0.066639274 -0.019127816 0.0792556 -0.040940285
-0.17484066 -7.709903e-06 0.12389888 0.09121796 0.052907027 0.026432723 0.021081557 -0.03857946
-0.05685423 0.013040917 -0.047232676 -0.002219387 -0.009909569 0.03376066 -0.0058388887 0.053055894
0.0069005373 -0.0016831171 0.0012503557 -0.0016739629 -0.03673708 -0.0022531368 -0.0040047667 0.016805833
0.0026822714 0.005646503 0.013291611 0.015508711 0.007449322 0.005698727 -0.008419356 -0.002145267
-0.0013385151 -0.0047325618 -0.0019303116 0.011133623 0.006124296 0.0032746084 0.0058920565 0.004680908
0.013042053 -0.003994399 -0.00056155847 -0.0077081984 -0.019923825 -0.0018142072 -0.0029297916 0.011556908
0.013063971 0.0072123227 -0.00032566945 0.00975476 0.003382017 -1.6197077e-05 -0.0028271107 0.0009187664
-0.004290002 0.0030431733 -0.00024596512 0.0048157508 -0.00042543127 0.018000547 0.0045317267 0.008543888
-8.579182 4.7494943e-08 -0.05042275 0.79648006 -1.0622481 0.5087898 0.80382085 1.4989094
-0.00031524737 4.5125375e-07 0.4979566 1.58795 -0.16803427 -0.059014607 1.5415745 1.3887284
-0.7059354 -0.62474644 0.2538087 1.6812215 0.6155026 0.13203286 0.5098205 -0.27802852
0.04047049 -0.24402303 -0.026675608 0.36455372 0.7299691 -0.5961899 0.2584803 -0.10042953
-1.6364257 0.4001011 0.18782637 0.1730031 0.35543692 -0.12704241 -0.0012888203 -0.11488766
-0.16400936 -0.038877722 0.26840624 -0.4007383 0.29634395 -0.016241709 -0.1846822 0.06251041
-0.26832256 0.20804717 0.11258465 0.12463498 -0.107271194 0.045305595 -0.050738424 -0.007965424
0.01553076 0.026730472 0.25311476 0.1356925 -0.05745135 0.041554637 0.21236734 -0.08291035
00000000: 0b13 8cbe 37c9 a8bd 23c0 b23c 167a 0f3e
00000010: b1c1 1c3d b990 3e3d 100c 0dbc 0772 ba3c
00000020: d590 333c 4ba8 873d 9ef4 0bbb 64aa cc3c
00000030: efaf 473a a869 ef3c 70bc c53a 6218 7f3c
00000040: 3c54 823a 0575 483c bacc 9e37 af7f 493c
00000050: 787c 46bc 2960 5c3c 78a4 4f3b 4bcc 613c
00000060: 4c52 a63b c4c8 423c b3fb 82bb 481a eb3b
00000070: a3b6 b6b9 d5ee 423c 7d90 713a 1f0e cc3b
00000080: f31c 39bb 869d f63b 285d 06bb c890 3e3c
00000090: 4c2c 6d3b 2bc2 5a3c 5275 b2ba 6460 943b
000000a0: f1f4 0739 c993 0c3c b966 3939 1d11 063c
000000b0: 49ad aa39 f753 b63b 85b0 0839 dc33 c23b
000000c0: 406d ad3a d5c8 ba3b 460a ab3a 81e5 8a3b
000000d0: 9e6d e6ba e959 c63a 74ec 073a 7820 863b
000000e0: 4a3d 8cb8 c1b9 433b f0f2 be39 07d0 743a
000000f0: 9746 0dba 33d4 7a3b cabd afb9 1f74 273b
00000100: 4058 18ba 749e daaf 39b9 1fba f5d5 122f
00000110: 5686 c8bb 4ce7 733a bccf bbbd fa5d 533d
00000120: de1a 0fbe 29dc b63d 6842 76bd 2e87 043e
00000130: c4b4 6ebc 98db 643d e1d5 a6ba 3d6f 143d
00000140: 5596 9fbc 9a36 2e3d 3a02 ed3b 7782 733d
00000150: 9c6d 023d f636 b33c 2f26 c3bc 6fc4 263c
00000160: f063 0abd b7d1 1e3d 6b2c 843c 63d3 993d
00000170: 6fc8 9f3d d783 013b 2c23 02bd 4602 b2bd
00000180: 15bf 0abe ebfe f13c 855d f2bd 3129 f83d
00000190: d774 8d3d b4fb 423e 6a9a 3a3e c14c 8c3d
000001a0: 4cb2 183e 7949 a3bd 486f 023d db35 06be
000001b0: 1fb7 94bd dd03 8cbd e328 8cbd 9583 a73c
000001c0: c9a7 0ebd 3f8e 253d 54c4 8cbc 12da 103d
000001d0: e70a 7cbc d2fa 853d e645 613c 9c52 b03d
000001e0: 5d8a b73d e468 3d3d 4753 a13d 4c4a 44bc
000001f0: 2c7a 883d f0b1 9cbc c350 a23d 00b1 27bd
00000200: 6e09 33be c859 01b7 b2be fd3d 7bd0 ba3d
00000210: 0ab5 583d 7089 d83c 3bb3 ac3c 7f05 1ebd
00000220: fbdf 68bd 92a9 553c 0d77 41bd 2373 11bb
00000230: bf5b 22bc 9e48 0a3d 2654 bfbb 2351 593d
00000240: e71d e23b 0a9c dcba fae2 a33a e068 dbba
00000250: 9f79 16bd 5da9 13bb 6b3a 83bb 63ac 893c
00000260: 0cc9 2f3b 4d06 b93b 0fc5 593c 4018 7e3c
00000270: 7119 f43b 63bc ba3b 57f1 09bc 9c97 0cbb
00000280: 1d71 afba 9b13 9bbb 8202 fdba cd69 363c
00000290: 52ae c83b d09a 563b 2712 c13b 4d62 993b
000002a0: 56ae 553c 73e3 82bb 8d35 13ba 0e95 fcbb
000002b0: 4a37 a3bc b1ca edba bf01 40bb 2f59 3d3c
000002c0: 440a 563c 5955 ec3b 9dbe aab9 6ed2 1f3c
000002d0: d4a4 5d3b f5de 87b7 0c47 39bb 5fd9 703a
000002e0: 2593 8cbb fa6f 473b e1f4 80b9 72cd 9d3b
000002f0: 6b0c dfb9 e275 933c e17e 943b aafb 0b3c
00000300: 5444 09c1 3efd 4b33 1688 4ebd 1ee6 4b3f
00000310: bff7 87bf 0c40 023f 34c7 4d3f 43dc bf3f
00000320: c947 a5b9 d843 f234 2bf4 fe3e f241 cb3f
00000330: 2d11 2cbe 4db9 71bd 5052 c53f dac1 b13f
00000340: 2fb8 34bf 62ef 1fbf 37f3 813e 4432 d73f
00000350: 9491 1d3f 9f33 073e 9983 023f c159 8ebe
00000360: 62c4 253d 2ce1 79be ce86 dabc c9a6 ba3e
00000370: 41df 3a3f e79f 18bf 8857 843e ffad cdbd
00000380: 6676 d1bf 0dda cc3e 8e55 403e ba27 313e
00000390: d4fb b53e 6817 02be a2ed a8ba 394a ebbd
000003a0: 12f2 27be 3f3e 1fbd 8b6c 893e 922d cdbe
000003b0: 65ba 973e 550d 85bc 551d 3dbe 7505 803d
000003c0: 9361 89be 510a 553e c892 e63d a040 ff3d
000003d0: 00b1 dbbd 5c92 393d 18d3 4fbd 6981 02bc
000003e0: bb74 7e3c ddf9 da3c 4298 813e faf2 0a3e
000003f0: 1b52 6bbd 3235 2a3d d376 593e e7cc a9bd

exp_avg_sq f4 [8, 32, 2]
1.489289 3.8712838 0.30234337 2.184134 0.007555571 0.082248196 0.0031573717 0.057850294
0.0033143335 0.025127834 0.00027646046 0.013723778 0.00043772557 0.014674009 0.0006108946 0.008665818
0.00019506445 0.006309805 0.00015428431 0.00620436 0.0002057775 0.0045674834 0.00013505219 0.0031474016
0.00011439964 0.0029079956 0.00012995399 0.002663377 2.9607967e-05 0.0021506883 4.989973e-05 0.0018321031
4.0162777e-05 0.0017524699 2.280632e-05 0.0015266687 3.2405427e-05 0.0014074598 5.4447162e-05 0.0011882763
2.5015892e-05 0.0010346484 1.8838773e-05 0.0010314542 5.950771e-06 0.0008354945 9.291782e-06 0.00079107727
6.2665645e-06 0.0007396127 1.08096165e-05 0.0006793147 0.00014508398 0.0007572603 2.8619595e-06 0.00059389655
5.2028104e-06 0.0005309873 5.7859266e-05 0.00056169234 4.5822417e-06 0.00046566004 1.5906013e-05 0.00046052242
0.00026167918 9.311179e-13 0.00029256562 2.6668563e-14 0.03239651 0.00048788555 0.39460275 0.65630233
0.41574407 0.56589746 0.3238768 0.46843368 0.18229684 0.30103248 0.07281636 0.27688113
0.08440235 0.46221697 0.059972312 0.4576579 0.03545771 0.40426219 0.040408384 0.3171466
0.057191283 0.29743403 0.07313193 0.26818427 0.08326571 0.24891788 0.10811872 0.25004733
0.16099489 0.24847853 0.20169315 0.25423792 0.24392202 0.2221515 0.22745901 0.15595704
0.15352029 0.13489431 0.07481421 0.1359987 0.052652635 0.10638055 0.057771254 0.07159677
0.067101076 0.049222175 0.073481046 0.047657393 0.07062 0.06382255 0.066229925 0.07496496
0.04995219 0.096868694 0.0371308 0.112365715 0.03133535 0.12055714 0.041039463 0.11099112
0.986515 1.7664958e-06 0.23620939 0.48077798 0.16650185 0.17273128 0.017450007 0.04613317
0.008662376 0.053854354 0.007316606 0.014371619 0.0016508931 0.013834243 0.0052971086 0.015647905
0.0028532825 0.0062587443 0.0006825323 0.0052357763 0.0025374244 0.006877255 0.0010388318 0.0025683772
0.0025451498 0.0043643387 0.0007433792 0.0028763034 0.00034869986 0.0022465202 0.00082907436 0.0031192976
0.00085345516 0.0016368915 0.0003312732 0.0010273599 0.0003763457 0.0010639167 0.00015188038 0.0011227189
0.0008045718 0.0013460875 0.0018164046 0.0031995045 0.00031045583 0.0010609278 0.00034966104 0.0007473599
0.0035086197 0.0033974682 0.00022647694 0.00053727196 0.00038621912 0.0006791574 0.00051724573 0.00085231394
0.000142266 0.0005162544 1.331274e-05 0.00035965213 0.0013200862 0.0019936832 0.0002582595 0.00047551587
378.14145 0.0022391775 1.3089496 6.057166 5.923108 3.3086822 6.229973 8.205285
5.8682435e-06 6.854896e-11 1.0276697 11.623847 1.1251858 2.1566787 19.923016 13.388199
5.1543427 6.81555 2.6871762 2.6699755 1.3188487 1.0441927 1.000876 1.5365763
1.6192489 0.86300147 1.2721046 1.3127519 2.5548103 1.4161048 1.9267943 1.7128774
1.1701379 1.1418765 0.82543725 1.0086191 0.8764102 0.73965055 0.8092176 1.1607069
0.38597348 0.60939634 0.26453206 0.2623587 0.25879008 0.20334777 0.18230316 0.11204371
0.16843836 0.08482433 0.04285674 0.084409416 0.09171063 0.036536977 0.04335039 0.077375196
0.03282417 0.079871275 0.05968597 0.05015325 0.087051705 0.05435671 0.07311691 0.08337222
00000000: 06a1 be3f 1dc3 7740 c0cc 9a3e dac8 0b40
00000010: b994 f73b be71 a83d e8eb 4e3b 6ef4 6c3d
00000020: 4a35 593b e3d8 cd3c e5f1 9039 b2d9 603c
00000030: 887e e539 416b 703c 7124 203a 13fb 0d3c
00000040: 378a 4c39 7bc2 ce3b 61c7 2139 f24d cb3b
00000050: fac5 5739 d4aa 953b cc9c 0d39 a344 4e3b
00000060: d7e9 ef38 1294 3e3b 4244 0839 0d8c 2e3b
00000070: a05e f837 90f2 0c3b 6d4b 5138 2e23 f03a
00000080: 7474 2838 22b3 e53a 3350 bf37 801a c83a
00000090: 10eb 0738 847a b83a 325e 6438 f0bf 9b3a
000000a0: 38d9 d137 0a9d 873a f507 9e37 dc31 873a
000000b0: bcac c736 1605 5b3a e6e3 1b37 4c60 4f3a
000000c0: 6145 d236 91e2 413a f35a 3537 0a14 323a
000000d0: af21 1839 e182 463a 1710 4036 b9af 1b3a
000000e0: cd93 ae36 f431 0b3a eaad 7238 893e 133a
000000f0: 28c1 9936 d523 f439 e76d 8537 4672 f139
00000100: fc31 8939 0f0b 832b 7e63 9939 8535 f028
00000110: 34b2 043d e4ca ff39 5f09 ca3e 6e03 283f
00000120: 68dc d43e a8de 103f 2ed3 a53e 8ad6 ef3e
00000130: 06ac 3a3e ee20 9a3e be20 953d 5dc3 8d3e
00000140: 24db ac3d b4a7 ec3e 87a5 753d 2352 ea3e
00000150: 1b3c 113d 74fb ce3e 4383 253d 0a61 a23e
00000160: 6841 6a3d 4649 983e 31c6 953d 734f 893e
00000170: 3687 aa3d 54e4 7e3e 596d dd3d 3406 803e
00000180: d8db 243e 2871 7e3e a688 4e3e 792b 823e
00000190: b2c6 793e af7b 633e 04eb 683e 34b3 1f3e
000001a0: 6c34 1d3e bc21 0a3e 3138 993d 3e43 0b3e
000001b0: 4aaa 573d 0cde d93d 8da1 6c3d 54a1 923d
000001c0: 4a6c 893d 319d 493d 3b7d 963d 6634 433d
000001d0: 38a1 903d 66b5 823d 8ea3 873d 3b87 993d
000001e0: ab9a 4c3d 1863 c63d 7716 183d ff1f e63d
000001f0: 7f59 003d a9e6 f63d ff18 283d 504f e33d
00000200: 3f8c 7c3f 5518 ed35 e0e0 713e 8828 f63e
00000210: 767f 2a3e 78e0 303e 51f3 8e3c 23f6 3c3d
00000220: a3ec 0d3c 6296 5c3d 24c0 ef3b f076 6b3c
00000230: c862 d83a 05a9 623c 5e93 ad3b 0930 803c
00000240: 23fe 3a3b 2716 cd3b f8eb 323a e090 ab3b
00000250: eb4a 263b 995a e13b 6929 883a 3852 283b
00000260: 87cc 263b ba02 8f3b 55df 423a 5d80 3c3b
00000270: b4d1 b639 5b3a 133b 3d56 593a 216d 4c3b
00000280: 68ba 5f3a f78c d63a bcae ad39 7aa8 863a
00000290: 4450 c539 1f73 8b3a 1442 1f39 3228 933a
000002a0: e6e9 523a 346f b03a 6d14 ee3a c7ae 513b
000002b0: adc4 a239 d40e 8b3a b652 b739 79ea 433a
000002c0: dff0 653b 0fa8 5e3b 717a 6d39 b6d7 0c3a
000002d0: 747d ca39 7b09 323a c697 073a d26d 5f3a
000002e0: 3d2d 1539 3f55 073a c859 5f37 b18f bc39
000002f0: be06 ad3a 74a8 023b 0167 8739 a94e f939
00000300: 1b12 bd43 2abf 123b a98b a73f 4ed4 c140
00000310: 1a8a bd40 73c1 5340 f05b c740 d948 0341
00000320: d4e7 c436 a2bd 962e ae8a 833f 47fb 3941
00000330: 1706 903f 0607 0a40 5662 9f41 1036 5641
00000340: 60f0 a440 fc18 da40 b2fa 2b40 e1e0 2a40
00000350: 09d0 a83f 1ba8 853f b41c 803f 88ae c43f
00000360: 8c43 cf3f aaed 5c3f 53d4 a23f 4108 a83f
00000370: 0382 2340 ec42 b53f 32a1 f63f 913f db3f
00000380: 14c7 953f 0229 923f db4f 533f 6e1a 813f
00000390: 6b5c 603f bd59 3d3f e228 4f3f 0b92 943f
000003a0: 519e c53e 6601 1c3f bf70 873e e153 863e
000003b0: 2280 843e 663a 503e aead 3a3e 2c77 e53d
000003c0: 1b7b 2c3e 61b8 ad3d 8d8a 2f3d d8de ac3d
000003d0: c8d2 bb3d cca7 153d 2e90 313d e376 9e3d
000003e0: a372 063d 8d93 a33d 4779 743d 7f6d 4d3d
000003f0: 2a48 b23d 24a5 5e3d 52be 953d 0ebf aa3d

exp_avg f4 [16, 8, 1]
0.28411144 0.4627387 -0.25294384 -0.28111976 0.23812282 -0.094454244 -0.019265836 0.14917183
0.019410009 -0.26738054 0.19620131 1.7961673 -0.5562239 -0.17324562 -0.104678445 1.9217684
-0.056147728 -0.02917716 0.035818625 -0.017258335 -0.06600441 0.02439711 0.0060829315 -0.10142222
-0.05226809 -0.021984786 0.037932802 -0.004020644 -0.058776945 0.024286808 0.008407311 -0.08270984
-0.18237019 -0.12288724 0.10638261 -0.08459581 -0.22624734 0.07320043 0.0041867327 -0.36002457
-0.06547801 -0.21516716 0.061419707 0.19613437 -0.0992982 0.0014746182 -0.020745205 0.16211015
-0.06552462 -0.27881595 0.07182786 0.3497004 -0.10549615 -0.011478587 -0.032512616 0.36856258
-0.05354986 -0.04708808 0.036299888 0.001807765 -0.058492552 0.022260489 0.005107783 -0.082348734
-0.060047895 -0.20372789 0.01903104 -0.36077332 0.06968322 0.030588478 0.039275903 -0.64567804
0.168216 0.085422724 0.026542421 0.8591505 -0.0013421963 -0.113266334 -0.052346576 1.3640072
-0.0025836746 0.024998808 -0.01900256 -0.11892832 0.030956531 0.007984381 0.00922069 -0.14103746
-0.0024915792 0.021351438 -0.027842192 -0.14135377 0.035437763 0.0072823493 0.011819538 -0.16742516
0.032189295 0.17184968 -0.06592459 -0.38117397 0.14106241 0.016446825 0.020793205 -0.39800593
0.031199602 0.05829576 -0.036045227 -0.09404272 0.066257134 -0.0016500409 0.0033321446 -0.0747614
0.040344436 0.08146986 -0.04211958 -0.107741244 0.07585614 -0.002524315 0.004916021 -0.08992504
0.027688134 0.051326476 -0.0363735 -0.10956737 0.071016856 -0.0039016127 0.007114782 -0.06195253
00000000: 0e77 913e 16ec ec3e db81 81be eeee 8fbe
00000010: 78d6 733e 3a71 c1bd 63d3 9dbc 80c0 183e
00000020: bd01 9f3c 1ae6 88be ffe8 483e cfe8 e53f
00000030: b164 0ebf 4d67 31be a761 d6bd 82fc f53f
00000040: 29fb 65bd f004 efbc 8db6 123d 5a61 8dbc
00000050: 522d 87bd 73dc c73c 5453 c73b 74b6 cfbd
00000060: 1117 56bd 7019 b4bc 6d5f 1b3d 9bbf 83bb
00000070: 18c0 70bd 21f5 c63c d1be 093c c763 a9bd
00000080: 40bf 3abe 4eac fbbd 20df d93d 9140 adbd
00000090: 62ad 67be 1bea 953d dc30 893b 2455 b8be
000000a0: 5619 86bd c854 5cbe 3b93 7b3d 73d7 483e
000000b0: db5c cbbd fa47 c13a d9f1 a9bc 3400 263e
000000c0: c631 86bd f7c0 8ebe 7c1a 933d ee0b b33e
000000d0: 5e0e d8bd af10 3cbc f32b 05bd 3cb4 bc3e
000000e0: 1957 5bbd 6edf 40bd 31af 143d 87f2 ec3a
000000f0: e395 6fbd a15b b63c 305f a73b 74a6 a8bd
00000100: c8f4 75bd 0b9e 50be fce6 9b3c 48b7 b8be
00000110: 13b6 8e3d b094 fa3c c5df 203d 284b 25bf
00000120: d140 2c3e 1cf2 ae3d 7e6f d93c 4af1 5b3f
00000130: a2ec afba 2ef8 e7bd 5d69 56bd ca97 ae3f
00000140: de52 29bb 4dca cc3c 42ab 9bbc b190 f3bd
00000150: 8d98 fd3c ecd0 023c 6012 173c 206c 10be
00000160: c349 23bb 36e9 ae3c 4f15 e4bc 0bbf 10be
00000170: 3027 113d c6a0 ee3b bca6 413c 8071 2bbe
00000180: ecd8 033d 5df9 2f3e 7903 87bd 3c29 c3be
00000190: aa72 103e 7ebb 863c 8356 aa3c 6fc7 cbbe
000001a0: 4f96 ff3c 89c7 6e3d 29a4 13bd 7899 c0bd
000001b0: d2b1 873d 2f46 d8ba 1c60 5a3b 811c 99bd
000001c0: 3540 253d acd9 a63d 9585 2cbd 71a7 dcbd
000001d0: 775a 9b3d fa6e 25bb 9316 a13b 9f2a b8bd
000001e0: 3ad2 e23c b63b 523d 61fc 14bd db64 e0bd
000001f0: 4971 913d 33b2 7fbb 1e23 e93b f0c1 7dbd

exp_avg_sq f4 [16, 8, 1]
2.6983225 4.5332313 0.63041943 12.086955 2.724411 0.3288094 0.380549 34.865204
1.8693392 2.846477 0.5756003 45.57574 3.107208 0.4749095 0.123314984 127.61945
0.080195494 0.065116614 0.026856044 0.2872518 0.08660357 0.011392229 0.008673629 1.6576344
0.081738405 0.0461923 0.025287027 0.31806168 0.07164038 0.01107846 0.010484931 1.2004112
0.9468901 0.99227023 0.29910442 2.600493 1.0381495 0.1413942 0.074603096 29.698296
0.29398906 1.3417069 0.06776102 1.1781517 0.4346679 0.024447972 0.010516309 5.831286
0.50988674 2.473929 0.1181917 2.147332 0.86541456 0.039339952 0.013533848 10.043104
0.07781243 0.050215837 0.017691404 0.30784836 0.051718153 0.01001735 0.008818491 1.0484353
0.22768852 1.3921165 0.06231128 1.1052138 0.5621628 0.024656655 0.012979146 3.7930121
0.13304982 0.6097191 0.03439473 1.1323043 0.13456121 0.015621927 0.0043233978 4.359775
0.01760384 0.011267823 0.0045469175 0.16471732 0.024329029 0.0029835766 0.0014671679 0.55192286
0.027184 0.010490359 0.0066451165 0.20153031 0.028974924 0.0039378135 0.0023622091 0.63634634
0.39338583 0.75385386 0.09987571 2.4091823 0.6589529 0.04047068 0.021897847 7.560137
0.08094258 0.25404677 0.020048954 0.36422345 0.20784904 0.006112587 0.001328743 1.4064898
0.15100367 0.50854176 0.03718217 0.701842 0.42703328 0.011688124 0.0019558845 2.8683977
0.07208347 0.0418462 0.017023671 0.39177078 0.080072485 0.008370296 0.0046642986 1.2407316
00000000: 51b1 2c40 3b10 9140 2b63 213f 2b64 4141
00000010: c05c 2e40 b559 a83e 52d7 c23e f875 0b42
00000020: 8246 ef3f ae2c 3640 8b5a 133f 8f4d 3642
00000030: 7fdc 4640 5727 f33e 918c fc3d 293d ff42
00000040: 893d a43d dc5b 853d 3501 dc3c ab12 933e
00000050: 365d b13d 79a6 3a3c d61b 0e3c 5d2d d43f
00000060: 7766 a73d 2334 3d3d bd26 cf3c fbd8 a23e
00000070: 31b8 923d 6e82 353c fdc8 2b3c 13a7 993f
00000080: 6467 723f 6c05 7e3f 3724 993e 7a6e 2640
00000090: 15e2 843f a4c9 103e 82c9 983d 1c96 ed41
000000a0: bc85 963e 0dbd ab3f 4ac6 8a3d adcd 963f
000000b0: ca8c de3e 1d47 c83c 994c 2c3c e599 ba40
000000c0: f087 023f da54 1e40 7d0e f23d e36d 0940
000000d0: cf8b 5d3f ee22 213d 13bd 5d3c 8eb0 2041
000000e0: 205c 9f3d 1faf 4d3d 90ed 903c 4d9e 9d3e
000000f0: 6ad6 533d d01f 243c 6f7b 103c 2133 863f
00000100: 2e27 693e e030 b23f 1d3a 7f3d a577 8d3f
00000110: e7e9 0f3f c1fc c93c 7ca6 543c b6c0 7240
00000120: 363e 083e 8d16 1c3f 7de1 0c3d 59ef 903f
00000130: 6aca 093e 1cf3 7f3c 4aab 8d3b 4783 8b40
00000140: ee35 903c ad9c 383c 4ffe 943b a8ab 283e
00000150: ac4d c73c 1c88 433b fc4d c03a d14a 0d3f
00000160: fbb0 de3c c1df 2b3c 47bf d93b f65d 4e3e
00000170: d25c ed3c c608 813b 4bcf 1a3b 98e7 223f
00000180: de69 c93e 91fc 403f a38b cc3d 0b30 1a40
00000190: 23b1 283f 95c4 253d 1d63 b33c a4ec f140
000001a0: 39c5 a53d 6b12 823e b43d a43c 7f7b ba3e
000001b0: 61d6 543e 194c c83b 3729 ae3a dc07 b43f
000001c0: b5a0 1a3e cb2f 023f 554c 183d ebab 333f
000001d0: 1ba4 da3e 8c7f 3f3c 4c2e 003b d493 3740
000001e0: 80a0 933d ec66 2b3d 3a75 8b3c 2e96 c83e
000001f0: 0bfd a33d 9123 093c f9d6 983b 4bd0 9e3f

exp_avg f4 [16]
0.73460263 0.90659 -0.16531512 -0.16027041 -0.52972144 -0.09593507 -0.036201198 -0.16417715
-0.33094448 0.77747947 -0.04765573 -0.055418458 -0.04505394 0.045630727 0.06451088 0.048106376
00000000: eb0e 3c3f 4816 683f 5e48 29be ed1d 24be
00000010: d39b 07bf 9b79 c4bd b547 14bd 0e1e 28be
00000020: 8e71 a9be e508 473f a832 43bd 77fe 62bd
00000030: 7b8a 38bd 49e7 3a3d 481e 843d 310b 453d

exp_avg_sq f4 [16]
38.401794 33.04983 1.1125526 1.1484174 13.084691 2.9804826 4.922385 1.0611744
2.6660724 1.47815 0.24746256 0.3718592 4.681264 0.774348 1.4312004 0.87513095
00000000: 709b 1942 0733 0442 2068 8e3f 57ff 923f
00000010: e55a 5141 3ac0 3e40 2e84 9d40 90d4 873f
00000020: eea0 2a40 0534 bd3f d366 7d3e 5464 be3e
00000030: eacc 9540 ac3b 463f 9331 b73f 9508 603f

exp_avg f4 [8]
0.23215711 0.001361947 -0.12677827 -0.009738976 0.29766196 -0.0062343474 -0.024474503 -0.006574653
00000000: 98ba 6d3e 5c83 b23a 2ad2 01be 3a90 1fbc
00000010: 2667 983e 7f49 ccbb c17e c8bc 3070 d7bb

exp_avg_sq f4 [8]
3.476025 0.25661054 1.8636731 0.018006708 14.858413 0.033063427 0.041480288 0.0043395273
00000000: 3277 5e40 7562 833e d78c ee3f ce82 933c
00000010: 0fbc 6d41 846d 073d 3ce7 293d 9832 8e3b

exp_avg f4 [8]
1.2110811 0.0011215985 0.14009693 0.0071651237 -0.5614014 -0.008189725 -0.013670537 0.0041913465
00000000: b504 9b3f 9a02 933a 9275 0f3e 6ac9 ea3b
00000010: 01b8 0fbf 322e 06bc 63fa 5fbc 9057 893b

exp_avg_sq f4 [8]
201.83096 0.119512826 3.407529 0.01331782 48.073948 0.074947774 0.022170085 0.003952747
00000000: bad4 4943 24c3 f43d f514 5a40 fc32 5a3c
00000010: b94b 4042 387e 993d 0a9e b53c 0c86 813b

exp_avg f4 [1, 8]
-0.053983677 -0.12781127 -0.2692804 -0.031585004 0.039549317 0.10342949 0.06796203 -0.0033564647
00000000: fd1d 5dbd f5e0 02be 1fdf 89be 475f 01bd
00000010: 77fe 213d d7d2 d33d ad2f 8b3d 22f8 5bbb

exp_avg_sq f4 [1, 8]
18.157795 0.05419845 10.389612 0.021329809 0.52621484 0.03039216 0.037342396 0.01409292
00000000: 2a43 9141 32ff 5d3d da3b 2641 dabb ae3c
00000010: 04b6 063f fbf8 f83c 57f4 183d fee5 663c

exp_avg f4 [8]
-0.24440339 2.0156038 5.1539106 342.11896 37.536945 -0.80292225 7.558548 10.079562
00000000: e244 7abe a7ff 0040 d6ec a440 3a0f ab43
00000010: d525 1642 508c 4dbf a0df f140 e345 2141

exp_avg_sq f4 [8]
13.5347595 1566.8224 220.16063 587448.56 9432.381 39.94674 6918.18 15876.953
00000000: 608e 5841 51da c344 1f29 5c43 896b 0f49
00000010: 8661 1346 76c9 1f42 7131 d845 d013 7846
